AI_Model/model1/keypoint_classifier/keypoint_classifier.tflite (tflite, 6720 bytes, 6 tensors)

sequential/dense/BiasAdd/ReadVariableOp f4 [20]
0	0xbf07e888	-0.5308919
1	0xbf2709b5	-0.65249187
2	0x3ec57e89	0.385731
3	0xbf3efd77	-0.74605507
4	0xbe74f7e0	-0.23922682
5	0x3db6c59f	0.08924412
6	0xbf6491ac	-0.8928478
7	0xbed93ee3	-0.4243079
8	0xbe6fa595	-0.23403008
9	0xbf386fe6	-0.72045743
10	0xbf55f2d2	-0.8357364
11	0xbe79acc6	-0.24382314
12	0x3ded357b	0.11582466
13	0xbf85b7cc	-1.0446715
14	0xbf225c07	-0.6342167
15	0xbeaf5424	-0.34243882
16	0xbe0ec188	-0.13941014
17	0xbe8b4d97	-0.27207634
18	0xbefc5e6f	-0.49290797
19	0x3c24886b	0.01004229

sequential/dense_2/BiasAdd/ReadVariableOp f4 [8]
0	0xbeb4154a	-0.35172492
1	0xbd8fb05c	-0.0701606
2	0xbf486237	-0.78274864
3	0x3d42b66c	0.047537252
4	0x3e604e31	0.21904828
5	0x3ee35ff1	0.44409135
6	0x3cd00e35	0.0253974
7	0x3f4173b6	0.75567186

sequential/dense_1/BiasAdd/ReadVariableOp f4 [10]
0	0x3ec3d6f2	0.38249928
1	0xbf735ccd	-0.9506348
2	0xbee2b853	-0.44281253
3	0x3f4ec618	0.8077102
4	0x3f504c72	0.81366646
5	0xbef0e1c6	-0.4704725
6	0x3ea24a1c	0.31697166
7	0x3e80aad2	0.25130326
8	0x3e7547c3	0.23953156
9	0x3ef5d479	0.48013666

sequential/dense/MatMul f4 [20, 42]
0	0x3e70c02c	0.23510808
1	0xbe347df6	-0.17626175
2	0xbb79e179	-0.0038128777
3	0x3fedd407	1.8580331
4	0xbcd9374c	-0.026515625
5	0x3fa4b1f5	1.2866808
6	0x3dce0519	0.10059566
7	0x3ec2b43e	0.3802814
8	0x3cddbc08	0.0270672
9	0xbb9f25c2	-0.004856796
10	0x3d77f8a0	0.06053984
11	0x3f39efd8	0.726316
12	0xbdaf65e4	-0.08564356
13	0x3ee078c2	0.4384213
14	0xbcfd4d49	-0.030920641
15	0x3eedbb81	0.46432117
16	0xbdaae78b	-0.083449446
17	0x3efe4596	0.49662465
18	0x3e863fcb	0.26220545
19	0x3d41ae8b	0.047285598
20	0x3d7ae7d2	0.061256237
21	0x3e0302c9	0.12794031
22	0x3c7a5334	0.015278626
23	0x3e843cc9	0.25827625
24	0xbd10f3e5	-0.035388846
25	0x3da795de	0.08182882
26	0x3e4703aa	0.19434991
27	0xbe976339	-0.29567888
28	0x3dd0cbef	0.10195147
29	0xbde2469e	-0.110486254
30	0xbd0faa4f	-0.03507453
31	0x3c2e8fb5	0.01065438
32	0xbdadf6d5	-0.08494345
33	0xbd26df6d	-0.04074042
34	0x3e34a900	0.17642593
35	0xbf8095ed	-1.0045754
36	0xbbcd5933	-0.006266737
37	0xbefc08d2	-0.4922548
38	0xbd15ff83	-0.036620628
39	0xbebb4490	-0.36575747
40	0xbd4f974d	-0.0506814
41	0xbef8430b	-0.4848865
42	0x3d705188	0.058671504
43	0x3e3e4884	0.1858235
44	0x3cf9db6b	0.030500134
45	0xbc2e2901	-0.010629893
46	0x3d9260a4	0.07147339
47	0x3dfd165d	0.12357781
48	0xbd8d80e6	-0.06909351
49	0x3dd713c5	0.105018176
50	0xbe4228d2	-0.18960884
51	0x3dc3e990	0.09566033
52	0xbd2827ec	-0.041053697
53	0xbd00e1e1	-0.031465415
54	0x3cee5020	0.029090941
55	0x3d957ad8	0.07298821
56	0x3a41c249	0.00073913165
57	0x3d2ab5eb	0.041677397
58	0xbd0130f0	-0.03154081
59	0xbd5a0142	-0.053223856
60	0xb92597e4	-0.0001579221
61	0x3ca73c34	0.02041445
62	0x3d37c29a	0.04486332
63	0x3d886ccd	0.06661377
64	0xbd68ff1d	-0.05688392
65	0x3ca55c88	0.020185724
66	0x3dbf87f9	0.093521066
67	0xbd1e74d0	-0.03868562
68	0x3e142e13	0.14470701
69	0x3db7a4f0	0.08967006
70	0x3db822aa	0.08990987
71	0x3dcad902	0.09904672
72	0x3d7adc99	0.061245535
73	0xbd9aa27d	-0.075505234
74	0x3e90f826	0.28314322
75	0xbfb6a01d	-1.4267613
76	0x3e376327	0.17908917
77	0x3e261403	0.16218571
78	0xbd4d7bf0	-0.050167024
79	0x3e051a62	0.12998345
80	0xbe3ede29	-0.18639435
81	0xbd1c2e3c	-0.03813003
82	0xbd70f232	-0.058824725
83	0xbe7d874f	-0.24758647
84	0xbe993320	-0.29921818
85	0x3de6e06c	0.11273274
86	0x3e2e38c3	0.1701384
87	0xbf0ea603	-0.55722064
88	0x3e8e9423	0.27847394
89	0xbebba304	-0.3664781
90	0x3ee97459	0.4559658
91	0xbedce170	-0.43140745
92	0x3f18af10	0.59642124
93	0xbe4640d1	-0.19360663
94	0x3e552876	0.20816216
95	0xbe2114bc	-0.15730566
96	0x3e0d9b0e	0.1382868
97	0x3d906576	0.07050602
98	0xbc0a804d	-0.008453441
99	0xbd323d0e	-0.043515258
100	0xbcaf3d15	-0.02139143
101	0x3d73d5c8	0.05953005
102	0x3e2ca406	0.16859445
103	0xbd3b34e4	-0.045704737
104	0x3d597069	0.05308572
105	0x3e12fb4a	0.14353672
106	0xbc066c4a	-0.008204529
107	0x3e03b17f	0.12860678
108	0xbe3e0feb	-0.1856076
109	0x3d882ab0	0.06648767
110	0xbe07033d	-0.13184829
111	0x3ec551e6	0.38539046
112	0xbaf08769	-0.0018350902
113	0x3e602693	0.21889715
114	0xbd9b8713	-0.07594123
115	0x3e490fb6	0.196349
116	0xbe52c68b	-0.2058355
117	0x3dc70009	0.097168036
118	0xbe5fa01f	-0.21838425
119	0x3f393c48	0.72357607
120	0x3d99686a	0.074906185
121	0x3eb617f3	0.35565147
122	0xbea0d5e9	-0.314132
123	0x3eb6d607	0.35710165
124	0xbe90c346	-0.28273982
125	0x3ea6c8be	0.3257503
126	0xbe91fb7e	-0.28512186
127	0x3bebee80	0.0072000623
128	0x3eacd6b1	0.33757547
129	0xbeed8a4d	-0.46394578
130	0x3eedb408	0.46426415
131	0x3d8afc17	0.067863636
132	0x3f1ffbd0	0.6249361
133	0x3e2ba8b4	0.16763574
134	0x3f5fd495	0.8743375
135	0x3e4a41df	0.1975169
136	0xbee3086e	-0.4434237
137	0xbc80b826	-0.015712809
138	0xbeccdd20	-0.40012455
139	0xbd855440	-0.0651021
140	0x3dc2f7fc	0.095199555
141	0x3de1b820	0.11021447
142	0x3f444a14	0.76675534
143	0x3e02562a	0.12728181
144	0xbecbb965	-0.39789882
145	0xbcfc406d	-0.03079244
146	0xbe21956d	-0.15779658
147	0xbc94f191	-0.018181594
148	0x3ecabe8a	0.39598495
149	0x3df056d0	0.11735308
150	0x3f7fac61	0.99872404
151	0x3e05e228	0.13074553
152	0xbf030109	-0.51173455
153	0xbe1035e1	-0.14083053
154	0xbed7ba49	-0.42134312
155	0xbce5c74b	-0.028049132
156	0x3db948a0	0.09047055
157	0x3d8276d4	0.06370321
158	0x3f09cad9	0.53825146
159	0x3ded194c	0.115770906
160	0xbee5e711	-0.44902852
161	0xbe73b26e	-0.23798534
162	0xbeb80a31	-0.35945275
163	0xbe7e36b5	-0.24825557
164	0xbcfd327f	-0.030907867
165	0xbe265040	-0.1624155
166	0x3f0e8a7e	0.5568007
167	0xbde3aa30	-0.11116445
168	0x3cfa1590	0.03052786
169	0x3d573d08	0.05254844
170	0x3f058f67	0.5217194
171	0x3efd2420	0.49441624
172	0x3f23fd63	0.6405851
173	0x3e9d9715	0.3077933
174	0x3ed63015	0.4183356
175	0x3dc3bba3	0.09557273
176	0x3e6868cf	0.22696231
177	0x3d87f385	0.066382445
178	0x3f3165a6	0.6929573
179	0x3df23d8a	0.11828144
180	0x3ef2da80	0.47432327
181	0xbc06e97a	-0.008234376
182	0x3ddf444c	0.109016985
183	0xbe011d28	-0.12608778
184	0x3e42941e	0.19001815
185	0x3d019334	0.031634524
186	0x3e64572d	0.2229888
187	0xbd81baa7	-0.06334429
188	0x3e3fdabf	0.18735789
189	0xbdb0049b	-0.085946284
190	0x3e0a666c	0.13515633
191	0xbe26e1e1	-0.16297103
192	0x3dd9a05f	0.106262915
193	0xbdb6b914	-0.089220196
194	0xbe299da5	-0.16564043
195	0xbe5b71f9	-0.21430196
196	0xbd125dec	-0.035734102
197	0xbe937192	-0.28797585
198	0xbdac0a9e	-0.084004626
199	0xbe876cc5	-0.26450172
200	0xbe7592c8	-0.23981774
201	0xbe2fe7e4	-0.17178303
202	0xbf153695	-0.5828641
203	0xbecc048e	-0.39847225
204	0xbe92c140	-0.28663063
205	0xbeb7c1f9	-0.35890177
206	0xbedec11f	-0.43506715
207	0xbeea393f	-0.457468
208	0xbf3c9a16	-0.73672616
209	0xbeccb17d	-0.39979163
210	0xbda0a684	-0.0784426
211	0xbd963a1a	-0.07335301
212	0x3ef85bdb	0.4850758
213	0x3eb763c0	0.3581829
214	0x3ed1c6d6	0.40972012
215	0x3dac5677	0.08414929
216	0x3ed61dab	0.4181951
217	0x3e5cffc7	0.21581946
218	0x3ea3e492	0.32010323
219	0x3e76bc62	0.240953
220	0x3e0a3dbe	0.13500115
221	0x3e756e2a	0.23967806
222	0x3ec0e893	0.3767744
223	0x3e10188b	0.14071862
224	0x3df5c1cc	0.119998544
225	0x3eaab5c7	0.3334181
226	0xbe169cbd	-0.14708228
227	0x3e8c3a53	0.27388248
228	0xbe98098b	-0.2969478
229	0xbdf7f451	-0.121071465
230	0x3e8faace	0.2806
231	0xbcb107d8	-0.021610186
232	0x3daef310	0.08542454
233	0x3e986131	0.2976165
234	0xbe5d8e7b	-0.21636383
235	0x3e91f0d6	0.28504056
236	0xbf2a5dd2	-0.6654941
237	0xbf125f7f	-0.57176965
238	0x3e2a54ea	0.16633955
239	0xbe291d77	-0.16515146
240	0x3c29024d	0.01031549
241	0x3e1cdbd5	0.15318234
242	0xbed717da	-0.42010385
243	0x3df8c8ad	0.12147651
244	0xbf342888	-0.70374346
245	0xbf384163	-0.7197477
246	0x3de7a28a	0.11310299
247	0xbe9fbcc6	-0.3119871
248	0xbe343b12	-0.17600659
249	0x3de02c6f	0.10945975
250	0xbee3b722	-0.44475657
251	0x3d9b4d56	0.0758311
252	0xbe7d49e4	-0.24735218
253	0x3d679620	0.056539655
254	0xbdca95ea	-0.09891875
255	0xbf2869ed	-0.6578663

sequential/dense_1/MatMul f4 [10, 20]
0	0xbe84e113	-0.25952968
1	0xbf3e52c0	-0.74345016
2	0x3f4358e4	0.7630751
3	0x3f375000	0.71606445
4	0x3eb3e482	0.35135275
5	0x3e9e7a69	0.30952767
6	0x3f5de521	0.8667775
7	0x3db555e1	0.08854271
8	0x3f8820fe	1.0635068
9	0xbbe4d60f	-0.0069835256
10	0x3e89a638	0.26884627
11	0x3dd3a2b4	0.103337675
12	0xbf203713	-0.62584037
13	0x3ed06fa7	0.40710184
14	0x3e0a3cf8	0.1349982
15	0x3f1cd32b	0.61259717
16	0xbe33166f	-0.17489026
17	0x3ed73e28	0.4203961
18	0xbdd36f3b	-0.1032395
19	0x3ed4b8f4	0.41547358
20	0xbe68b4af	-0.22725175
21	0x3f275fc0	0.6538048
22	0xbe92358a	-0.28556472
23	0x3f2304d4	0.6367924
24	0x3ebcd02b	0.3687757
25	0x3db6c78a	0.08924778
26	0x3f677213	0.9040844
27	0x3e9a7660	0.30168438
28	0xbeb80933	-0.35944518
29	0x3d9eba7f	0.07750415
30	0x3da23537	0.07920306
31	0x3e1d96cc	0.15389556
32	0xbea726a4	-0.32646668
33	0x3f82d7db	1.0222124
34	0x3fbdb9a0	1.4822273
35	0x3f1ef85b	0.6209771
36	0x3e647cb7	0.223132
37	0xbd16164f	-0.03664237
38	0x3f246d6f	0.6422948
39	0x3e2b7afe	0.16746137
40	0xbcc4d59c	-0.024027638
41	0x3eeea48c	0.46609914
42	0x3cc80d69	0.024420457
43	0x3f4a1c47	0.789494
44	0xbd95eb16	-0.0732023
45	0x3e991416	0.29898137
46	0x3ee7f34c	0.45302808
47	0xbe365310	-0.17805123
48	0x3ece7911	0.4032674
49	0x3f04260b	0.5162055
50	0x3efeff4b	0.49804148
51	0x3d9b3a98	0.07579535
52	0x3f87631b	1.057712
53	0x3e55ae74	0.2086733
54	0x3f0a9bb4	0.54143834
55	0x3eab5346	0.3346197
56	0x3f6c062d	0.92196923
57	0x3e99cc20	0.30038548
58	0x3f757d38	0.95894194
59	0xbe70ff48	-0.23534882
60	0xbe2af4b8	-0.16694915
61	0x3f3ef861	0.74597746
62	0xbf00fa51	-0.5038195
63	0x3eddcfc7	0.43322584
64	0x3f8201cb	1.0156797
65	0x3dd1bc8d	0.10241041
66	0x3f07707c	0.5290601
67	0x3f8638cf	1.0486087
68	0x3dfa5bf9	0.12224574
69	0x3f5bd921	0.8587819
70	0x3f789553	0.9710285
71	0x3edc381f	0.43011567
72	0xbf34305d	-0.70386297
73	0xbeb79a18	-0.35859752
74	0xbef70d32	-0.48252255
75	0xbe855240	-0.26039314
76	0x3b6f91d8	0.0036555436
77	0x3dacbcba	0.08434434
78	0xbed260b5	-0.41089407
79	0x3f445e09	0.76705986
80	0x3e8ccbe6	0.27499312
81	0xbf6e622b	-0.9311854
82	0x3e1428a0	0.14468622
83	0xbea4f796	-0.32220143
84	0xbed62444	-0.41824543
85	0xbf566352	-0.837453
86	0x3f0a7d88	0.54097795
87	0xbf47ba86	-0.7801899
88	0x3f0f008e	0.5586022
89	0x3e73a1c0	0.23792171
90	0xbe7cf11b	-0.2470135
91	0x3ea7817e	0.32715982
92	0x3f264d88	0.64962053
93	0x3e3360bd	0.17517371
94	0xbe1289fc	-0.1431045
95	0xbd49b5ee	-0.049245767
96	0x3cf9d63a	0.030497659
97	0x3e9c5ad3	0.30538043
98	0xbd26487a	-0.040596463
99	0xbd3da294	-0.046297625
100	0xbd007dab	-0.031369846
101	0x3dd118cf	0.1020981
102	0xbe10c592	-0.14137867
103	0xbe92ef54	-0.28698218
104	0xbdbecd8b	-0.09316548
105	0xbd70f846	-0.058830522
106	0x3f166c78	0.5875926
107	0xbdcf4a93	-0.10121646
108	0xbc34cd9b	-0.011035348
109	0xbcca165b	-0.024668863
110	0xbe2b40c3	-0.16723923
111	0x3c99f3d0	0.018793017
112	0x3d9d9fe0	0.07696509
113	0xbf73f93d	-0.9530218
114	0x3e7be1fd	0.24597926
115	0x3f243995	0.64150363
116	0x3d7fe342	0.06247259
117	0xbd5af4ee	-0.05345624
118	0xbe12da4e	-0.14341089
119	0xbe57e40b	-0.21083085
120	0x3d31656b	0.04330961
121	0x3f3e468f	0.74326414
122	0x3edec66c	0.4351076
123	0x3f70aa87	0.94010204
124	0x3ea58604	0.32328808
125	0x3f23b334	0.6394532
126	0xbebe58a7	-0.3717701
127	0x3e89afa7	0.26891825
128	0xbf57fefa	-0.8437344
129	0xbef80135	-0.4843842
130	0x3e95083a	0.2910784
131	0xbf5d303f	-0.8640174
132	0x3ee83ffe	0.45361322
133	0x3d4a91db	0.049455505
134	0x3de0fae6	0.10985355
135	0x3ea5b9b4	0.32368243
136	0xbcc74f91	-0.024329932
137	0xbf755815	-0.9583753
138	0xbdd1cf22	-0.102445856
139	0x3e55c7a9	0.20876946
140	0x3f88ad3f	1.067787
141	0xbf4e1186	-0.8049549
142	0xbe9bb63a	-0.30412465
143	0x3df5c8f4	0.120012194
144	0x3e95b639	0.29240587
145	0x3e4c2305	0.19935234
146	0xbd4f19af	-0.050561603
147	0x3ec881af	0.3916144
148	0xbe803320	-0.25039005
149	0x3e91060b	0.28324923
150	0xbe1973a6	-0.14985523
151	0x3eb63db2	0.35593945
152	0x3f2fc55b	0.68660516
153	0x3cb440a9	0.022003489
154	0x3f645ba8	0.89202356
155	0x3d2dd9aa	0.04244391
156	0x3f49b3df	0.78790087
157	0x3cd66b24	0.026174136
158	0x3f003df2	0.5009452
159	0xbeb1282a	-0.34600955
160	0x3f6e0beb	0.92986935
161	0xbf322c58	-0.69598913
162	0x3f0d50e0	0.5520153
163	0x3e9093b4	0.2823769
164	0x3ebcabdb	0.36849865
165	0x3f447e82	0.76755536
166	0x3ea2d0f4	0.31800044
167	0xbf233bf0	-0.6376333
168	0x3f22592d	0.6341732
169	0x3d9e1821	0.07719446
170	0x3e4b7bc1	0.19871427
171	0x3daf3a6a	0.085560635
172	0x3ea08804	0.31353772
173	0x3ea91895	0.33026567
174	0x3d905666	0.07047729
175	0x3f03820f	0.5137033
176	0x3e62d06d	0.2214982
177	0x3f008d19	0.502153
178	0x3ef43e69	0.47703865
179	0xbef8fcbd	-0.48630324
180	0xbf12d697	-0.5735869
181	0x3f9f697d	1.2454067
182	0x3e3e63c2	0.18592742
183	0x3e215fad	0.15759154
184	0x3b77d895	0.0037818302
185	0xbe2b017a	-0.16699782
186	0x3d95efe8	0.07321149
187	0xbf1f471f	-0.622179
188	0x3f5e8b3e	0.86931217
189	0x3f2c335f	0.67265886
190	0xbcddc935	-0.027073482
191	0x3f42e954	0.7613728
192	0x3d22f210	0.03978163
193	0xbde9fcfc	-0.11425206
194	0x3e315225	0.17316492
195	0x3e66a180	0.22522545
196	0x3e74d171	0.2390802
197	0x3f962ac7	1.1731805
198	0x3e2aea12	0.16690853
199	0x3d2dd63b	0.042440634

sequential/dense_2/MatMul f4 [8, 10]
0	0x3c3c9a80	0.011511445
1	0xbdbfec15	-0.09371201
2	0x3eb69bf4	0.35665858
3	0xbe80ec45	-0.2518026
4	0xbd0e42d7	-0.034731712
5	0xbf6082f8	-0.8769984
6	0xbe3c4d4d	-0.18388863
7	0x3ee0e918	0.43927836
8	0x3f7aaff0	0.9792471
9	0xbd735e97	-0.05941638
10	0xbfa0486e	-1.2522104
11	0xbf3eccc8	-0.7453122
12	0xbecf7f3a	-0.40526754
13	0x3f3bfd5f	0.7343349
14	0xbf657b9d	-0.89641744
15	0xbecf78ab	-0.4052175
16	0x3eaa92ec	0.33315217
17	0x3dfe75e4	0.124248296
18	0xbf4ad271	-0.7922736
19	0x3e6704be	0.22560403
20	0xbe48a3be	-0.19593713
21	0x3f9378c4	1.152123
22	0x3f27a709	0.6548925
23	0xbd8e14ec	-0.06937584
24	0xbf8b16bf	-1.0866317
25	0x3e08c9d7	0.13358246
26	0xbebea2ae	-0.3723349
27	0x3e638ca8	0.22221625
28	0xbee17950	-0.44037867
29	0x3dace650	0.08442366
30	0x3eeb33b5	0.45937887
31	0x3f109c82	0.5648881
32	0xbf95a04e	-1.1689546
33	0xbf9f848e	-1.2462327
34	0x3f445e65	0.76706535
35	0x3eca1b54	0.39473975
36	0xbf5e7e8b	-0.8691184
37	0xbf7b616e	-0.9819554
38	0x3c9bd1a7	0.019020868
39	0x3efe5146	0.49671382
40	0xbf3ea91e	-0.744768
41	0x3ec22f7d	0.37926856
42	0x3ed02c4b	0.40658793
43	0xbebc6d74	-0.36802256
44	0xbe652caf	-0.22380327
45	0x3f03bcf9	0.51460224
46	0x3ec04b56	0.37557477
47	0x3f2364fc	0.63825965
48	0x3efbd1a5	0.49183384
49	0xbfab63aa	-1.338979
50	0xbfae35cc	-1.3610168
51	0xbf86b816	-1.0524929
52	0x3f2f3e5d	0.68454534
53	0xbf2e91be	-0.68191135
54	0x3dd2882d	0.1027988
55	0x3e18c2c3	0.14918046
56	0xbf7580c0	-0.9589958
57	0x3e823450	0.25430536
58	0x3dcfce92	0.10146822
59	0x3f13f057	0.57788604
60	0x3ec7edcf	0.3904862
61	0xbe5508e7	-0.20804177
62	0xbe8515e4	-0.25993264
63	0xbe8d3935	-0.27582708
64	0xbf299a48	-0.6625104
65	0xbf382c35	-0.71942455
66	0x3f3df70b	0.7420508
67	0xbe369705	-0.17831047
68	0x3e96fd48	0.29490113
69	0xbfa06b11	-1.2532674
70	0xbe1f128f	-0.15534423
71	0xbff52174	-1.9150834
72	0xbfc9b8dc	-1.575954
73	0x3f404c6c	0.7511661
74	0xbdf98c94	-0.12185016
75	0xbedb08d0	-0.4278016
76	0xbf9009a2	-1.125294
77	0x3edb204c	0.42798078
78	0xbf33a72e	-0.7017697
79	0xbec908c5	-0.39264503
