AI_Model/model1/keypoint_classifier/large_keypoint.tflite (tflite, 6748 bytes, 6 tensors)

sequential_1/dense_5/BiasAdd/ReadVariableOp f4 [8]
00000000: dfc1 8abf 5899 463e 2a26 a0be efdd 783e
00000010: be8e 7a3f 2f1e b0bd b586 25be 9eb1 f63e
-1.0840415 0.19394433 -0.31279117 0.24303411 0.9787406 -0.08599507 -0.16164668 0.48182386

sequential_1/dense_4/BiasAdd/ReadVariableOp f4 [10]
00000000: 9ba8 203f bb2b 873f 7032 8fbe 5731 553f
00000010: 737f b03f 572a de3f 09a5 7bbf a6c6 3abd
00000020: ccc7 aa3e c1db 023f
0.6275727 1.056022 -0.27968168 0.8327841 1.3788894 1.7356671 -0.982987 -0.045599602
0.33355558 0.5111657

sequential_1/dense_3/BiasAdd/ReadVariableOp f4 [20]
00000000: 2091 44bf f5ea 273f 4e1c 33bd 9e83 aebd
00000010: 9dde 2fbf 6bcc b2bf 5440 83bf 3bf4 57bf
00000020: d091 853d 6436 bcbf 034b 9dbf 1255 273f
00000030: 7ccf a4bd ea46 0f3f dfcc 94bf d1cb 88bf
00000040: 1d8e 1e3e a2b6 94bf e107 86bf 2132 7abf
-0.76783943 0.6559289 -0.043728165 -0.08521198 -0.68699056 -1.3968633 -1.0254006 -0.8435704
0.06521952 -1.4704099 -1.2288517 0.6536418 -0.08047387 0.5596758 -1.1625022 -1.06872
0.154839 -1.1618235 -1.0471154 -0.9773274

sequential_1/dense_3/MatMul f4 [20, 42]
00000000: 0cf5 993e f676 1bbe ed40 5a3f 4611 3ebe
00000010: 7a3a fe3e ea11 24bd 90da 1b3f 6af9 f43d
00000020: ef0c 073f fc33 153e 5698 8f3e b0a9 33bb
00000030: 0fba 703e 0cc0 0a3d 0b60 2c3e 838b e63d
00000040: 91f9 203e ce9c 323e aa06 c53d 6bd1 433d
00000050: b793 3e3e facc 183d 3fb5 773e 82aa acbc
00000060: 6cb0 003e 46ea a5bd 657c 86be 2f22 6f3d
00000070: c3c4 ecbd 5388 373d ef5d f6bd 3c33 14bd
00000080: 9335 8ebe 410d 38be 9948 ebbe 3524 903d
00000090: 1eba f1be aa48 9f3c 773a 10bf c444 5cbd
000000a0: 5fab 41bf 208e dfbd 51c5 20be d671 273e
000000b0: b607 c9bd e6bf f0be cdc1 a2bc b191 bebd
000000c0: 7b0a 4d3d ddb5 c6bd b96e 0c3e 6a13 e3bd
000000d0: 01d0 91bd ee1b 673e 82fb e73c fdbb 233e
000000e0: 902c 5a3d 53e0 bb3d 5b81 643c 7606 9fbf
000000f0: bb30 88bd 610d 8f3e c0f0 a33d cbf3 2f3e
00000100: ef1d 183d 90a2 113e ba0c 1fbc e2e0 463e
00000110: fc19 edbc e061 b03e 8b22 5e3d 9a3e 7e3e
00000120: 89d0 66bd f66f 8b3e 88e5 67bd c7c6 a03e
00000130: ae7b 13bc e2ec e23e 7d42 02bd a751 aa3e
00000140: 097d f5bc d0f3 b23e d77f b1bd 0721 c33e
00000150: c415 443e 86d8 333e 5155 a4bd dfa4 4e3f
00000160: c88f 26be 566a a33e 896f 0cbe 8c79 b63e
00000170: da99 cb3f 39b4 be3e 31c6 8abd 8838 8f3d
00000180: e4ba b7bd 0d05 aa3c 0be6 a5bd c103 943d
00000190: a025 0fbe 27db e23d 910f edbd 27c9 7b3c
000001a0: a507 debd 191d fe3b a9df a2bd a122 0b3d
000001b0: 0286 67be e844 353d ec9d b1bd 506d dfbc
000001c0: 61dd dabd 8b05 4ebd 7350 a7bd d919 bbbd
000001d0: edc6 42be 128c d3bd af12 cebc 05ad 8cbd
000001e0: 1232 03bc 6c31 10be d7be e83d 42e7 36be
000001f0: f05a b83d dd38 1cbe 6efa 843e 1a82 51be
00000200: 8481 52bf 59f4 f4ba fca4 f6be 6915 3a3e
00000210: c65e 44bf ccd0 a03e 6556 bdbe 6e60 bd3e
00000220: ea73 37be abb9 343c dd06 7bbd bcf7 083e
00000230: 9ca8 a2bc 1065 303e ee69 a7bd 36ca 2b3e
00000240: 58f5 05be c1ca 033d 9a4e d2bc d300 fe3d
00000250: 796e 66bd 8884 5fbd a753 18bb 786b dfbd
00000260: 4f5a 0e3e 3f90 a93b 6a1e 263e 17ce ca3d
00000270: b250 383e 9dd9 1bbe 91fd a93e 24ca 7abe
00000280: 2761 ae3e a6e1 cc3a a1fb 823e cc7b c43d
00000290: 95c8 dd3e a769 1abd ccbc 023f 71a0 a4bd
000002a0: b440 e2bd f9b9 23be e1a4 d9be b7b9 2ebe
000002b0: 23c8 08be 659c eabb f161 4abe 663f 1b3d
000002c0: 979f 59be eefc 29bd 3c3f 00bf 3274 f9bc
000002d0: 88dc 593e d27a a23d 8cd4 853e 636a 3ebc
000002e0: c6c9 183e e74a 023d 4de5 2abf 4316 29bd
000002f0: ab58 843e 08a2 4a3d 2151 a73e 3ca2 1abe
00000300: 0933 433e 8cbf d2bd 5614 023d 87f9 cfbc
00000310: 5a29 4b3e 0054 d03d 895e 673f 5814 1dbe
00000320: b9d8 8a3f 424e 27be ede0 663e 3311 acbc
00000330: 7761 443d 1db7 c13d 93cf d93e 8ca8 ccbd
00000340: 9633 093f b2af c0bd cc94 813e 0cb2 2e3e
00000350: 62d6 e7be f168 e93e de4f 46be 1c47 08be
00000360: fd71 85be d2eb 95be d951 45be a65b 91be
00000370: 0096 ecbe 73d3 bbbe d2e2 243e 79a9 06be
00000380: a507 713e 3776 8bbd 9c91 d93c fc4b 64bd
00000390: 1879 0abf 0701 cfbe 5679 8c3d 24e4 10be
000003a0: b89b 2e3e 0ec4 69be cc93 1fbd a840 d0bd
000003b0: b2ef c7bd c230 debe 8f38 98bc 0b74 37be
000003c0: 532e d13e e894 c9be d29f dd3e bb2f b5be
000003d0: 0f51 ac3d a882 fabe e523 c4bd 3147 6abe
000003e0: d306 193e 878b 9cbe 8fb8 a73e 597f 8dbe
000003f0: 9615 0bbe b342 8abe ad05 60be 5b79 fabd
0.30069768 -0.15182099 0.8525532 -0.18561277 0.4965399 -0.040056147 0.60880375 0.119616345
0.5275411 0.14570612 0.2804591 -0.0027414374 0.23508476 0.033874556 0.16833512 0.112570785
0.15720202 0.17442629 0.09620412 0.04780714 0.18611036 0.037304856 0.24190234 -0.021077398
0.125673 -0.08101325 -0.2626678 0.05838221 -0.11560967 0.044807743 -0.12029635 -0.036181673
-0.2777525 -0.17973806 -0.45953825 0.07038156 -0.4721231 0.019443829 -0.5633921 -0.053776518
-0.75652117 -0.1091578 -0.1570027 0.16352019 -0.09815924 -0.47021407 -0.019867802 -0.09305132
0.050058823 -0.097026564 0.13714112 -0.11087687 -0.07119752 0.22569248 0.02831817 0.1598968
0.053265154 0.09173646 0.013946856 -1.2423847 -0.066499196 0.27939895 0.08004904 0.17182843
0.037137922 0.14222169 -0.009707624 0.19421723 -0.028943054 0.34449673 0.05423216 0.24828568
-0.05635122 0.27233857 -0.056615382 0.31401655 -0.0090016555 0.44321352 -0.03180169 0.3326542
-0.029966848 0.3495164 -0.08666962 0.38111135 0.19148928 0.17563066 -0.08024085 0.80720323
-0.16265786 0.31917065 -0.13714422 0.35639608 1.5906327 0.37246874 -0.06776083 0.06993204
-0.089711934 0.020754362 -0.08100518 0.072272785 -0.13979197 0.11076956 -0.11575235 0.015367783
-0.10841302 0.0077549336 -0.07952816 0.03396857 -0.22609714 0.044255167 -0.08672699 -0.027273804
-0.10686756 -0.050298255 -0.08169641 -0.091357894 -0.19021197 -0.10329451 -0.025155393 -0.06868938
-0.008007543 -0.14081353 0.11364525 -0.17861655 0.0900172 -0.15256067 0.25972313 -0.20459786
-0.82228875 -0.0018688544 -0.48172748 0.1817223 -0.7670711 0.314093 -0.36979976 0.36987633
-0.17915311 0.011030595 -0.061285842 0.13375753 -0.01985579 0.17226052 -0.08174501 0.16776356
-0.13081872 0.032175783 -0.025672246 0.12402501 -0.0562577 -0.05456975 -0.002324322 -0.1090917
0.13901637 0.005174666 0.1622254 0.0990259 0.17999533 -0.15219732 0.33201268 -0.24491173
0.34058496 0.0015631213 0.25582603 0.09593925 0.43317094 -0.037698414 0.5106933 -0.08038414
-0.110474974 -0.15988912 -0.42508605 -0.17063032 -0.13357596 -0.007159757 -0.19763924 0.03790226
-0.21252285 -0.04150098 -0.5009649 -0.030450914 0.21275532 0.07933582 0.26138723 -0.011622044
0.1492072 0.031809714 -0.66756135 -0.041280996 0.25848898 0.04947093 0.32679084 -0.1510095
0.19062437 -0.10290441 0.031757675 -0.025387539 0.19839993 0.10172272 0.90378624 -0.15339792
1.0847389 -0.16338447 0.2254674 -0.021004295 0.047944512 0.09458754 0.4254118 -0.09993085
0.5359434 -0.09408511 0.25308836 0.17060107 -0.4528075 0.45587876 -0.19366404 -0.13308376
-0.2606353 -0.2928148 -0.19269504 -0.28390235 -0.4620819 -0.3668476 0.1610215 -0.13150586
0.23538072 -0.06809657 0.02655869 -0.055736527 -0.54091024 -0.4043047 0.068590805 -0.14149529
0.1705159 -0.22828695 -0.03895931 -0.10168582 -0.09762515 -0.43396574 -0.018581657 -0.1791536
0.40855655 -0.3937142 0.43285996 -0.35387978 0.08413898 -0.48927808 -0.09577159 -0.2287872
0.1494401 -0.305752 0.32757995 -0.2763622 -0.13582453 -0.27004012 -0.21877165 -0.12230178

sequential_1/dense_4/MatMul f4 [10, 20]
00000000: c18d 103f 4a30 44be f3c6 afbe 0bcf 2a3f
00000010: 3e7d 07be e0a7 533e 972c 0ebe 374b 823e
00000020: 5057 eebe 5911 ae3f 25ae f13b c87d 61be
00000030: 6440 d5bd 1233 8bbe facc c13e 9c97 b1bd
00000040: 4bf8 92be 08ca 2f3f 7f2c 9abd 10ce ddbd
00000050: 2f1c 88bf b630 273e 5e8b 4fbe 9611 653e
00000060: c04a cebe 5881 113f 41b1 dc3b 2d47 fd3e
00000070: 0dae d0be 7506 6d3d dd79 873d e80b 3d3d
00000080: b1e5 4dbf 0e35 1e3e 4a06 a2be 34b7 f1bd
00000090: 62f8 fc3d 3228 3e3f 6455 ef3d 8e0e d7be
000000a0: 86c1 ed3e 5da7 bc3f 383c 213e 70a6 7f3e
000000b0: b064 67be 17d1 91be a0d3 9e3f d0f2 96be
000000c0: 140b 693e 156a ccbd 99e5 48be c397 c73f
000000d0: f060 fa3e 3be2 9f3d 8e0e 4f3e 50b4 91be
000000e0: 71f2 8c3d 9d4d 65bf 3901 acbd 107e 403c
000000f0: d27f 0a3d 4249 40bf 1705 d5be 0623 18be
00000100: c027 283d 31db 023e dee8 41be 36f2 67be
00000110: 1b99 03bd 286d ce3e c3c3 c23e 39e8 14bf
00000120: df67 6fbe 645f 53be 3b07 213e 5d09 673d
00000130: ffc9 80be 236a 003f ce01 5c3e 0a62 703e
00000140: cac2 2f3f 57cb a83d 40e6 e2bc 2894 06bf
00000150: b223 96bf 1a39 963e 1271 323d 07e8 bdbf
00000160: 99e2 d6bb 1dfa d93e 67ad 1bbd e8e1 0c3e
00000170: a6c3 5c3f 4876 92be d02e 2e3f 8098 1a3f
00000180: d35c 58bf e031 073e dbc8 7cbd ffaf 3fbd
00000190: 1e33 01bf c9fd 5b3f b7e9 04c0 be69 bbbe
000001a0: 69b7 16be cad6 7b3e 3b47 9fbd 5fab 81bf
000001b0: b1d7 afbf aaa2 e13c 624d 8a3e e65e 3b3f
000001c0: 90b0 043d c0a5 c3bf f426 32bc 21fd dc3c
000001d0: 6069 c4bf ff5c 543e f5cd 813e 575a 823e
000001e0: 91dd e53d 82e3 d2be a3ef 223e 00c4 37be
000001f0: 245c 10bf d9ec 593f 3954 603f 7d49 01bf
00000200: b9e7 7c3e 9ec0 b1be f2f0 61be 87c3 a5be
00000210: c084 ee3e 9c14 083e bada 1c3e 677a 453e
00000220: b998 f43d 0288 32be 158a 24be aded 553e
00000230: 97ea 273f 1494 2fbd acc6 09bf 6d7f 35be
00000240: dcb1 a53e c60d 9cbe 6791 b9be 6604 663f
00000250: 8557 9b3d abd3 3e3e 6e78 853f 3902 f93d
00000260: 3d20 0d3f 6377 babe 0ab6 a93e 7cfd 853f
00000270: 0387 22bf f61c 813d 6ce4 b4bf 605b 933f
00000280: f750 03be 6e13 a13e b7a0 d13e e9d6 ee3e
00000290: fb2d ffbd dc02 123d 4e49 2d3d 2b33 27bf
000002a0: ea3e cf3e 97c7 d4be 644b ad3e f717 d53e
000002b0: 1e2e ee3d 773e d23e 08e8 a3bf 275b 3a3f
000002c0: c751 b83e 141b 5fbc 5729 333f f357 593f
000002d0: 84a9 26be bf23 9bbe 7be4 703d 0377 033f
000002e0: e38f bdbc e499 fd3c 6041 7cbd 59cf c63f
000002f0: 1448 2abd ab12 38bd 9b09 2b3f 8878 323e
00000300: cc8e e8bc 2aea c63e 3068 77bd 0daa 07bf
00000310: a585 e83e 627f ffbb bd8e 823f 3fab d4be
0.564663 -0.19159046 -0.34331474 0.6672217 -0.1323137 0.20669508 -0.13884197 0.2544801
-0.4655099 1.3599044 0.007375496 -0.22020638 -0.10412672 -0.271874 0.37851697 -0.08671495
-0.28705058 0.6866765 -0.07528018 -0.10830319 -1.0633601 0.16327175 -0.20268008 0.2236999
-0.40291405 0.5683799 0.0067349975 0.49468365 -0.4075779 0.057867486 0.066150405 0.046153933
-0.80428606 0.15449926 -0.31645423 -0.11802521 0.12352063 0.74280083 0.11686209 -0.42003292
0.4643671 1.4738575 0.15745628 0.24965835 -0.22597003 -0.28479835 1.2408333 -0.29482126
0.22758132 -0.09981171 -0.19618835 1.5593189 0.48902082 0.07806822 0.20220396 -0.2845788
0.068821795 -0.89571553 -0.08398671 0.011748806 0.033813305 -0.7511178 -0.41605446 -0.1485711
0.041053534 0.12778927 -0.18936488 -0.2265099 -0.032128435 0.40317655 0.3803998 -0.58166844
-0.23379467 -0.20641857 0.15725414 0.056405414 -0.2515411 0.5016195 0.21485063 0.23474899
0.686566 0.08241909 -0.027697682 -0.5256982 -1.1729643 0.2934044 0.043564864 -1.4836434
-0.0065577743 0.42573634 -0.038007166 0.13758051 0.86236036 -0.28605866 0.6804018 0.60388947
-0.8451664 0.1320262 -0.06171499 -0.046798702 -0.50468624 0.8593412 -2.0767648 -0.36604112
-0.14718403 0.24593654 -0.07777258 -1.0130423 -1.3737699 0.027543385 0.27012163 0.7319168
0.032394946 -1.5284958 -0.010873545 0.02697617 -1.5344658 0.207386 0.25352445 0.2545955
0.11223901 -0.411892 0.15911727 -0.17945862 -0.56390595 0.85127026 0.87628514 -0.5050276
0.2469777 -0.34717268 -0.2206457 -0.32375738 0.46585655 0.13289112 0.15317813 0.19284974
0.11943192 -0.17434695 -0.16068299 0.20891447 0.6559233 -0.042865828 -0.53818774 -0.1772439
0.32362258 -0.30479258 -0.36243746 0.8985046 0.075850524 0.18635432 1.0427377 0.12158627
0.55127317 -0.3641921 0.33146697 1.0467982 -0.6348726 0.06304352 -1.4132209 1.151226
-0.12823854 0.31460136 0.40942928 0.46648338 -0.12459942 0.03564726 0.042306237 -0.6531245
0.40477687 -0.41558525 0.3384658 0.41619846 0.1162989 0.41063282 -1.2805185 0.7279534
0.3599989 -0.013617296 0.69984955 0.84899825 -0.16275603 -0.3030071 0.058811646 0.5135347
-0.0231399 0.03095717 -0.061585784 1.5532027 -0.041572645 -0.04493968 0.6681153 0.17428792
-0.028388403 0.38850528 -0.060402095 -0.5299385 0.45414463 -0.0077971676 1.019981 -0.415369

sequential_1/dense_5/MatMul f4 [8, 10]
00000000: c0f1 ac3e 2da6 26bd 63db 91be 2449 f03e
00000010: 5221 033e 3f2d b6bb bcb2 db3e c1f3 003e
00000020: c074 873e b748 6b3d 5783 9a3e 5672 8e3e
00000030: 861c 3ebf 9625 64be 66a8 693f 3cf9 69bf
00000040: 8c10 8f3d 8307 10bf 238e 573e 8dd7 efbf
00000050: c5b7 1d3f 4995 51bd ffd9 89bf 0b01 383f
00000060: 4845 a1bf e92b 15be 6b2a ca3f f355 333d
00000070: 4571 68bf 6307 0e3f 3c28 e5bf d22f 79bf
00000080: 35b0 25bf 0cad 8fbf aabd 70be 0efc 9e3f
00000090: cbd5 d8be cef7 1a3f 9416 4b3e 0215 dd3e
000000a0: eb8d 33bf abd6 43bf 49f7 13be b5ac 37bf
000000b0: 1d01 c6be 644e 83bd 4795 5ebf cd97 323e
000000c0: 1878 593f c0a3 c73d 9637 e73d aa00 593f
000000d0: bf47 283f cbae 35bd 3b0f 98be 3084 52bf
000000e0: eee7 9e3e c542 053e 975b 2cbf f705 e23e
000000f0: bc39 d13e 5f53 aabe a0ca 013f 5e7d 8f3e
00000100: 7755 f43e 2e98 66bf cbad 863e f3b9 53bf
00000110: 0b6e f53d a149 33be ef77 adbe c628 e03e
00000120: 795f 99bf 1ef9 57bf fcd2 3e3f 5cc5 ad3f
00000130: 417f d7bf 057b b6bf 9f18 95bf b486 24bf
0.3377819 -0.04068582 -0.2848769 0.46930802 0.1280568 -0.005559593 0.429098 0.12592985
0.2645626 0.057442393 0.3017833 0.27821606 -0.74262273 -0.22279963 0.9127258 -0.91395926
0.06985578 -0.5626146 0.21050315 -1.8737656 0.61608535 -0.05116776 -1.0769652 0.7187659
-1.2599268 -0.14567532 1.5794195 0.04378314 -0.90797836 0.5548002 -1.7902904 -0.97338593
-0.64721996 -1.1224685 -0.23509851 1.2420671 -0.4235061 0.6053437 0.19832832 0.4318009
-0.70138425 -0.7649943 -0.144498 -0.71747905 -0.38672724 -0.06411436 -0.8694653 0.1744072
0.84948874 0.0974803 0.11289899 0.8476664 0.65734476 -0.04435615 -0.2969912 -0.8223295
0.31036323 0.13013752 -0.67327255 0.44145176 0.4086436 -0.33266732 0.50699806 0.28025335
0.47721455 -0.9007596 0.2630447 -0.8270561 0.1198388 -0.17508556 -0.33880565 0.43781108
-1.1982261 -0.843645 0.74540687 1.3575854 -1.683571 -1.4256293 -1.1648139 -0.6426804
