AI_Model/model1/keypoint_classifier/new_keypoint.tflite (tflite, 6720 bytes, 6 tensors)

sequential/dense/BiasAdd/ReadVariableOp f4 [20]
0	0xbf6816bf	-0.9065971
1	0x3f9eb6b5	1.2399508
2	0xbeb00225	-0.34376636
3	0xbdfe94da	-0.12430735
4	0x3eb7f181	0.3592644
5	0xbf8ac38c	-1.0840926
6	0xbf87b154	-1.0600991
7	0x3e929395	0.2862822
8	0xbeb67c0e	-0.3564152
9	0xbd5839b7	-0.052789416
10	0xbf2ed39b	-0.68291634
11	0xbf1b6ee9	-0.6071611
12	0xbe9e87bc	-0.30962932
13	0xbd1dc710	-0.03851992
14	0x3d0f56d5	0.03499492
15	0xbf26f36c	-0.6521518
16	0xbecc13b6	-0.39858788
17	0xbf1bea29	-0.60904175
18	0x3f86087b	1.0471338
19	0xbe1b41fe	-0.15161893

sequential/dense_2/BiasAdd/ReadVariableOp f4 [8]
0	0xbe38a722	-0.18032506
1	0x3f27e4a1	0.65583235
2	0xbea2a2d7	-0.31764862
3	0x3d096cc5	0.033550996
4	0x3ea8cb11	0.32967427
5	0xbf336e04	-0.70089746
6	0xbea3ac91	-0.31967595
7	0x3ef4a152	0.47779328

sequential/dense_1/BiasAdd/ReadVariableOp f4 [10]
0	0xbdbdb0e5	-0.092622556
1	0x3f169a7a	0.5882946
2	0x3e01eb91	0.12687518
3	0x3fa6302a	1.2983449
4	0x3fad46bd	1.3537213
5	0x3e826fe1	0.25475982
6	0xbe73e2c5	-0.23816974
7	0x3e65490c	0.22391146
8	0x3fe973bf	1.8238448
9	0x3f4a31d3	0.78982276

sequential/dense/MatMul f4 [20, 42]
0	0x3e970272	0.29494053
1	0x3d001800	0.03127289
2	0x3e37e0db	0.1795687
3	0x3d763ed4	0.06011851
4	0x3e8bf6ee	0.2733683
5	0x3dc68b68	0.096945584
6	0x3ec556a2	0.38542658
7	0x3dec768a	0.11546047
8	0x3ec04670	0.3755374
9	0x3e22a160	0.15881872
10	0xbe4d1eb2	-0.2003124
11	0x3da8a3f3	0.08234396
12	0x3d6fee18	0.058576673
13	0x3d893f2e	0.06701504
14	0x3c8333b9	0.016015874
15	0xbbfd261b	-0.00772549
16	0xbddfc32e	-0.109258994
17	0xbcda8f22	-0.02667958
18	0xbe4f136a	-0.2022225
19	0x3ddc695f	0.107622854
20	0x3da286da	0.07935877
21	0xbc1aa2e4	-0.00943825
22	0xbd6a9bef	-0.057277616
23	0xbe896fbb	-0.26843056
24	0xbe79cce6	-0.24394569
25	0xbf89ff52	-1.0781043
26	0xbe203295	-0.15644296
27	0x3e0fbc1e	0.14036605
28	0x3e175169	0.1477715
29	0x3d2f8627	0.042852547
30	0x3dded58e	0.10880576
31	0xbe937c6d	-0.28805867
32	0xbe0863e3	-0.13319354
33	0xbf2097b8	-0.62731504
34	0xbe0ddbca	-0.13853374
35	0x3e44ab20	0.19205904
36	0x3d8a1127	0.06741553
37	0x3e156bce	0.14591905
38	0x3e0959a5	0.13413103
39	0xbdba2a8c	-0.090901464
40	0x3c9ae6d5	0.018908897
41	0xbe3834a2	-0.17988828
42	0x3da08d0c	0.078394026
43	0xbe47b39a	-0.19502106
44	0xbcce79b9	-0.025204526
45	0x3c374840	0.011186659
46	0x3d8e7276	0.069554254
47	0x3c67ced6	0.014148435
48	0x3d736b11	0.05942828
49	0x3cc4d9fd	0.024029726
50	0x3cd0d0e9	0.025490241
51	0x3d63e5e4	0.055639163
52	0xbda9eb80	-0.08296871
53	0x3ebfc080	0.37451553
54	0xbcf8f009	-0.030387895
55	0x3e69f309	0.22846617
56	0x3c400a76	0.011721244
57	0x3e30a5fc	0.17250818
58	0x3c4b2824	0.012399707
59	0x3e4ee438	0.20204246
60	0xbd64b133	-0.055833053
61	0x3f065e3d	0.52487546
62	0x3d1a7114	0.037705496
63	0x3e943d72	0.2895313
64	0xb7a5ab46	-1.9749288e-05
65	0x3e020285	0.12696274
66	0xbc4f9f07	-0.012672192
67	0x3da3f1b8	0.080050886
68	0xbcfee4ed	-0.03111502
69	0x3f3d0677	0.7383799
70	0xbd6bf62d	-0.05760782
71	0x3ecc4b5d	0.39901248
72	0x3c7c1d34	0.015387822
73	0x3dd30487	0.10303598
74	0x3da88c1e	0.0822985
75	0xbdeafa33	-0.11473503
76	0xbb89c427	-0.0042042914
77	0x3f2f74ba	0.68537486
78	0x3d19f19b	0.03758393
79	0x3ec96bc8	0.39340043
80	0x3d154ba9	0.03644911
81	0x3e015bc9	0.1263267
82	0x3c03c499	0.008042478
83	0xbc474e9c	-0.012164738
84	0xbdf347a2	-0.11878897
85	0x3dc3ee88	0.095669806
86	0x3cf4b5d9	0.029871868
87	0xbecce362	-0.4001723
88	0x3ed5c699	0.4175308
89	0xbe28e0a5	-0.16491945
90	0x3f2c31a0	0.6726322
91	0xbd09ff4d	-0.03369074
92	0x3e8e7ca9	0.27829483
93	0x3e02a63a	0.12758723
94	0x3ed749bc	0.42048442
95	0xbe2387ae	-0.15969726
96	0x3e92622d	0.28590527
97	0xbc4643e1	-0.0121011445
98	0xbd5bb305	-0.053637523
99	0x3e37cf9e	0.17950293
100	0xbe9de008	-0.30834985
101	0x3e7f82a1	0.24952175
102	0x3f3f7036	0.74780595
103	0xbda723a4	-0.08161095
104	0x3f0900e3	0.5351698
105	0xbd7d6f99	-0.061874006
106	0xbc90d6de	-0.017680582
107	0x3dd17306	0.10227017
108	0xbee660a8	-0.44995618
109	0x3da381bb	0.079837285
110	0x3f0f365a	0.5594231
111	0xbdb54846	-0.08851676
112	0x3f160ea6	0.586161
113	0xbdee5983	-0.11638167
114	0x3d5f0555	0.054448444
115	0x3dc3e556	0.09565227
116	0xbf30ab08	-0.6901097
117	0x3d90d4ad	0.07071815
118	0x3d9cb8c4	0.07652429
119	0xbd571016	-0.052505575
120	0x3e946319	0.28981856
121	0xbe0ff450	-0.14058042
122	0x3ea0c1c0	0.3139782
123	0xbe17aa98	-0.1481117
124	0x3da1e6de	0.079053625
125	0x3e3f6a02	0.18692783
126	0x3d92a91c	0.07161161
127	0xbe254c8e	-0.16142485
128	0x3e3f3d38	0.18675697
129	0x3f9e8615	1.2384669
130	0x3e4a1d41	0.19737722
131	0x3f098156	0.53712976
132	0x3ec98283	0.39357385
133	0x3eb2d3b4	0.34927142
134	0x3f0df2de	0.5544871
135	0x3ebd51b1	0.36976388
136	0xbe32a45f	-0.17445515
137	0x3e430454	0.1904462
138	0x3d27110b	0.040787738
139	0x3e093ed6	0.13402876
140	0xbd00bf96	-0.03143271
141	0x3e203556	0.15645346
142	0xbd4eef13	-0.050520968
143	0x3dd7ab5f	0.10530733
144	0xbe52d273	-0.20588093
145	0x3dbea003	0.093078636
146	0x3dda7f55	0.10668818
147	0x3d7e50ee	0.0620889
148	0x3e100e14	0.1406787
149	0x3d2117d2	0.039329357
150	0xbe5b6751	-0.21426131
151	0x3d3cf3de	0.046131007
152	0xbe780bfa	-0.24223319
153	0x3cd935c5	0.026514897
154	0x3d9eade0	0.07748008
155	0xbca86255	-0.0205547
156	0x3c5b4928	0.013384141
157	0xbf670855	-0.9024709
158	0xbec8add4	-0.3919512
159	0xbf081911	-0.5316325
160	0xbe0979ee	-0.13425419
161	0xbc6a8319	-0.014313483
162	0x3d45be14	0.048276976
163	0x3c522cb8	0.012828045
164	0x3d27007b	0.040771943
165	0xbeedeeb9	-0.46471193
166	0xbd647e3b	-0.055784445
167	0xbee9004c	-0.4550804
168	0xbe8456e5	-0.25847545
169	0xbe9f17da	-0.31072885
170	0x3f237bf4	0.6386101
171	0xbfb44929	-1.4084827
172	0x3ebad08b	0.3648723
173	0xbef4959c	-0.47770393
174	0x3f1645f0	0.58700466
175	0xbea027cf	-0.31280372
176	0x3f3cd389	0.7376028
177	0xbec1301f	-0.37732026
178	0xbdbc42fb	-0.09192463
179	0xbdc24fda	-0.09487887
180	0xbd5ef520	-0.05443299
181	0xbe2f4d8f	-0.1711943
182	0xbd868aec	-0.06569466
183	0xbdc74981	-0.09730817
184	0xbe15355f	-0.1457114
185	0xbe134999	-0.14383544
186	0xbe9555fe	-0.2916717
187	0x3daa652f	0.083200805
188	0x3da622ad	0.08112083
189	0xbd0fc63a	-0.035101153
190	0xbdaba913	-0.08381858
191	0x3be1743f	0.0068803127
192	0xbe417054	-0.18890506
193	0x3b0c3088	0.0021391232
194	0xbeeb966c	-0.460132
195	0x3e118bdf	0.14213513
196	0xbc03fc93	-0.008055824
197	0x3dc135ac	0.09434065
198	0x3d9fcb65	0.07802466
199	0x3eaca3e7	0.33718798
200	0xbd4331bd	-0.047654856
201	0x3e808474	0.25101054
202	0xbf1424a5	-0.57868415
203	0x3e8d094b	0.27546152
204	0xbdb741cd	-0.089480974
205	0x3e1533ba	0.14570513
206	0x3e31b9aa	0.17355981
207	0x3ea7dee2	0.32787234
208	0x3e6b6b07	0.22990046
209	0x3e91c100	0.2846756
210	0xbe8e406c	-0.27783525
211	0xbe851169	-0.25989845
212	0x3e2e8029	0.17041077
213	0x3e289f00	0.16466904
214	0x3e0528dc	0.13003868
215	0x3cce3bd9	0.025175022
216	0x3e9fc612	0.31205803
217	0x3b47fc79	0.0030515476
218	0x3eb60ea5	0.35558048
219	0x3cdc67b3	0.026904916
220	0xbdae686b	-0.0851601
221	0x3d8a177c	0.067427605
222	0x3cf978d2	0.03045312
223	0x3c1d88d8	0.009615146
224	0xbce8dc6e	-0.028425422
225	0xbd01826f	-0.03161853
226	0xbd0580c5	-0.032593507
227	0xbc9b740f	-0.01897624
228	0xbddff95c	-0.109362334
229	0x3d4d1d96	0.050077043
230	0x3df1337a	0.117773965
231	0xbdaa9c85	-0.08330635
232	0x3d94f7d5	0.07273833
233	0xbf525634	-0.82162786
234	0xbdee9631	-0.116497405
235	0xbe35f631	-0.17769696
236	0xbe045b38	-0.12925422
237	0x3d8096bd	0.06278751
238	0x3dbadc8e	0.09124099
239	0xbd85113d	-0.064974286
240	0x3d68f07f	0.05686998
241	0xbf042b52	-0.516286
242	0xbe53753c	-0.2065019
243	0xbf1cff40	-0.6132698
244	0xbe362ce4	-0.17790562
245	0x3e27ad10	0.16374612
246	0xbcc556c2	-0.02408922
247	0x3db26f03	0.0871258
248	0x3d90b039	0.07064862
249	0xbe9451c7	-0.2896864
250	0xbd2c314d	-0.042039204
251	0xbeedb3e1	-0.464263
252	0x3d9685dc	0.073497504
253	0xbe82b11d	-0.25525752
254	0xbe73a4ec	-0.23793381
255	0xbe94395c	-0.28950012

sequential/dense_1/MatMul f4 [10, 20]
0	0x3bdc1e1e	0.0067174574
1	0x3e33642c	0.17518681
2	0x3e013d76	0.12621102
3	0x3ca60813	0.020267522
4	0x3e917d51	0.2841592
5	0x3b86051f	0.004089966
6	0x3e686b09	0.2269708
7	0xbf5fb764	-0.87389207
8	0x3fb6f653	1.4293922
9	0xbf5796de	-0.8421458
10	0x3e8f7925	0.28022113
11	0x3e917547	0.28409788
12	0x3d341ecb	0.04397468
13	0x3ead9846	0.33905238
14	0x3f6aad9e	0.9167117
15	0x3eb665b7	0.35624477
16	0x3ec0eb41	0.37679484
17	0x3ca19d15	0.019728223
18	0x3e4c7644	0.1996699
19	0xbf4fe661	-0.81210905
20	0xbe0e83e5	-0.13917501
21	0x3e5f29cd	0.2179329
22	0x3e1fa5ff	0.15590666
23	0xbe879846	-0.26483363
24	0xbfb7d31f	-1.4361304
25	0xbdb88929	-0.09010536
26	0x3e6d8b32	0.2319763
27	0xbddccde1	-0.10781456
28	0xbe48cd87	-0.19609652
29	0x3ea5967b	0.3234137
30	0xbf29737b	-0.66191834
31	0x3eb56475	0.35428205
32	0x3c5c1258	0.013432108
33	0x3e889b3e	0.2668094
34	0xbf3e6d78	-0.74385786
35	0x3e1e0722	0.15432408
36	0xbf840586	-1.0314186
37	0x3e529e2c	0.2056815
38	0x3e1c072a	0.15237108
39	0x3f314642	0.6924783
40	0x3dd1b915	0.1024038
41	0x3ed24df2	0.41075093
42	0x3d511ae9	0.051051054
43	0xbca081f8	-0.019593224
44	0x3f074355	0.52837116
45	0x3cac8713	0.021060502
46	0xbe847efb	-0.25878128
47	0x3f02f54f	0.5115556
48	0x3f480ade	0.7814158
49	0x3f0b8790	0.54503727
50	0x3f41efa1	0.7575627
51	0xbef8cdb3	-0.48594436
52	0xbdebe56f	-0.1151837
53	0x3e87d91d	0.26532832
54	0x3f3139fb	0.69229096
55	0xbe0c1758	-0.1368078
56	0x3f8545f4	1.0411973
57	0xbe18068d	-0.14846249
58	0x3f1c0981	0.60952
59	0xbed651b2	-0.41859204
60	0x3e8a0639	0.26957873
61	0xbfd3b8d0	-1.6540775
62	0x3e692cc7	0.22770987
63	0xbdb5d392	-0.088782445
64	0x3e6d3c47	0.23167525
65	0x3e5e6659	0.2171873
66	0x3d94127e	0.072300896
67	0x3db8c249	0.09021432
68	0xbf787236	-0.9704927
69	0xbf1d9e88	-0.61570024
70	0xbe6808e4	-0.22659642
71	0xbf08d965	-0.5345672
72	0xbf67d566	-0.90559995
73	0x3c808920	0.015690386
74	0x3d71e90a	0.059060134
75	0x3ea6ac00	0.325531
76	0x3e1c59c2	0.15268615
77	0xbfd4e91a	-1.6633637
78	0xc00758a6	-2.1147857
79	0xc00241fb	-2.0352771
80	0xbf849291	-1.0357229
81	0x3d97eb41	0.07417918
82	0x3d4a4133	0.049378585
83	0xbf94fd85	-1.1639868
84	0xbdda858d	-0.10670004
85	0xbf2644b5	-0.6494859
86	0x3d8f6fe5	0.07003764
87	0xbee89415	-0.45425478
88	0x3d56a07b	0.05239914
89	0xbb50f418	-0.0031883772
90	0xbf175ab4	-0.59122777
91	0xbd9f0bbc	-0.0776591
92	0xbfa8e12f	-1.319372
93	0xbf89fdff	-1.0780638
94	0xbddfcc63	-0.109276555
95	0xbf2219e1	-0.6332074
96	0x3d1262d4	0.03573878
97	0xbdecb600	-0.11558151
98	0x3da32f08	0.07967955
99	0x3d5cd552	0.053914376
100	0xbeb7aefc	-0.3587569
101	0xbd9ac572	-0.07557191
102	0x3e59b4ea	0.2126042
103	0xbe82ec94	-0.2557112
104	0x3e7442a0	0.2385354
105	0xbc874577	-0.016512616
106	0x3e2f8ba3	0.17143111
107	0xbd93f096	-0.072236225
108	0x3c57ac07	0.013163573
109	0xbd814c2b	-0.06313356
110	0x3dc7384c	0.09727535
111	0x3df6141e	0.12015556
112	0x3f77de90	0.9682398
113	0x3da01901	0.07817269
114	0x3e3bef5d	0.18353029
115	0x3f827f49	1.0195094
116	0x3ebb4fb9	0.3658426
117	0x3fa58c69	1.2933475
118	0xbdada542	-0.08478786
119	0xbdcb475b	-0.09925719
120	0x3ef21d15	0.47287813
121	0x3eb5c441	0.35501292
122	0x3e48a2a4	0.19593292
123	0x3dc57404	0.09641269
124	0x3ea7d570	0.32780027
125	0x3f38112e	0.71901214
126	0xbee40a30	-0.44539022
127	0xbd4ff9e4	-0.050775424
128	0x3e2b845d	0.16749711
129	0x3d831a47	0.064014964
130	0x3f5fbb27	0.87394947
131	0xbf6887ba	-0.908321
132	0x3e4ca6a7	0.19985448
133	0x3e9a30e9	0.3011544
134	0x3f0ff233	0.5622894
135	0xbe341643	-0.17586617
136	0xbe1fddf4	-0.15612012
137	0xbe66c1e2	-0.22534898
138	0x3eafe208	0.34352136
139	0x3f0186a9	0.505961
140	0x3eaa9752	0.33318573
141	0x3e3086d6	0.17238936
142	0x3f341b4a	0.7035414
143	0x3f786c3a	0.9704014
144	0xbc1aa805	-0.009439473
145	0xbf8c7649	-1.0973598
146	0x3f2bca97	0.67106
147	0x3e3329d9	0.17496432
148	0x3df13df7	0.11779397
149	0x3d846a17	0.064655475
150	0xbf4d5710	-0.8021097
151	0xbe8fa31e	-0.28054136
152	0x3f1ac78b	0.6046073
153	0x3e693930	0.22775722
154	0x3e278737	0.16360174
155	0x3f475d1c	0.7787645
156	0x3eb73d5a	0.35788995
157	0x3f5b8aee	0.85758865
158	0x3e4a06aa	0.19729105
159	0xbd3273b3	-0.04356737
160	0x3f640eb6	0.8908495
161	0xc01dee74	-2.467679
162	0xbf4794b5	-0.77961284
163	0x3e0209fa	0.12699118
164	0xbde80b4f	-0.11330282
165	0x3ef76e95	0.48326555
166	0xbf337adf	-0.7010936
167	0xbf4cebe1	-0.8004742
168	0x3eadd34d	0.33950272
169	0x392c0898	0.000164064
170	0xbe053913	-0.13010053
171	0xbc945c70	-0.018110484
172	0xbe9570a7	-0.2918751
173	0xbee315b0	-0.44352484
174	0xbe700ecc	-0.23443145
175	0x3f80ebb5	1.0071932
176	0xbe12db81	-0.14341547
177	0x3ea4c9bd	0.32185164
178	0xc0339e31	-2.8065302
179	0xbda5ed51	-0.08101905
180	0x3bba1a1d	0.0056793825
181	0xbdadfc88	-0.08495432
182	0xbe501c9a	-0.2032341
183	0xbf629897	-0.88514084
184	0x3efdeadd	0.4959325
185	0xbd936b36	-0.07198183
186	0x3e591aa3	0.21201567
187	0xbf061648	-0.5237775
188	0x3dfdb2d9	0.12387628
189	0xbe9f6a79	-0.3113592
190	0xbefb36bb	-0.49065194
191	0x3eeac09c	0.45850074
192	0xc00b31c6	-2.174913
193	0xbfaefc3b	-1.3670725
194	0x3edddea4	0.43333924
195	0x3f5beb85	0.8590625
196	0x3f30e558	0.6909995
197	0xbe866217	-0.26246712
198	0xbd6295a4	-0.05531849
199	0xbf06be72	-0.52634346

sequential/dense_2/MatMul f4 [8, 10]
0	0x39e0a539	0.0004284771
1	0x3db5b0d7	0.0887162
2	0x3d9980a5	0.0749524
3	0xbf13b5b9	-0.5769916
4	0xbf4269ff	-0.7594299
5	0x3eb265a3	0.34843168
6	0x3ed51174	0.41614878
7	0x3e58ee40	0.21184635
8	0x3eef13da	0.46694833
9	0xbed90638	-0.42387557
10	0xbfb2d13a	-1.3970101
11	0xbfac9a88	-1.3484659
12	0xbf9b899a	-1.2151368
13	0xbeb85574	-0.36002696
14	0xbf4fbf46	-0.81151235
15	0x3f33a9d0	0.7018099
16	0xbdd5c002	-0.10437013
17	0x3df0341a	0.117286876
18	0x3f5fc25c	0.87405944
19	0xbefcc7d4	-0.49371207
20	0xbf15434f	-0.5830583
21	0xbec7f7fa	-0.3905638
22	0xbf6d8221	-0.92776686
23	0x3f7b78d2	0.9823123
24	0xbf337aae	-0.7010907
25	0xbece31ee	-0.40272468
26	0xbf4e9b7c	-0.80706
27	0xbeaa78d1	-0.332953
28	0x3ef146d3	0.47124347
29	0x3f785229	0.97000366
30	0x3ec0e1ac	0.37672174
31	0xbd4550c8	-0.048172742
32	0xbeee7b5c	-0.4657849
33	0xbfa8730a	-1.3160107
34	0x3f8b4567	1.0880555
35	0x3ef60946	0.4805395
36	0x3e14e46f	0.14540266
37	0x3f345ea9	0.7045694
38	0xbfe96820	-1.8234901
39	0x3f5d615a	0.8647667
40	0x3db36682	0.08759786
41	0x3f7c8fef	0.98657125
42	0x3e195f8b	0.14977853
43	0xbfc9858c	-1.574388
44	0xbf8c728d	-1.0972458
45	0x3e8b8ed0	0.27257395
46	0xbec15a49	-0.37764195
47	0x3f67dceb	0.9057147
48	0xbfd8bc23	-1.6932415
49	0x3ede1a53	0.4337946
50	0x3ec67578	0.38761497
51	0x3f35cf9b	0.71019906
52	0x3f04169c	0.51597
53	0xbf2c8f07	-0.6740574
54	0x3f5eae44	0.8698466
55	0xbf3d35a6	-0.73909986
56	0x3e4e4b31	0.20145871
57	0xbe469463	-0.19392543
58	0xbd22ca23	-0.039743554
59	0xbf6d37b4	-0.9266312
60	0x3e6d7351	0.23188521
61	0x3c536741	0.012903036
62	0x3ed20130	0.4101653
63	0x3eb10c84	0.3457986
64	0xbec99187	-0.3936884
65	0xbf6450f5	-0.8918603
66	0x3f37fd8c	0.71871257
67	0x3e434aa8	0.19071448
68	0xbf1617e2	-0.5863019
69	0xbf327446	-0.6970867
70	0xbf7f285c	-0.9967096
71	0xbf84e685	-1.0382849
72	0x3ed1adeb	0.40953
73	0x3f0dd198	0.5539794
74	0x3f82e8e9	1.0227329
75	0xbf424b95	-0.7589658
76	0xbf40ff6d	-0.7538975
77	0xbf50f1d4	-0.81619
78	0x3da9dce7	0.08294087
79	0x3e28299a	0.1642212
