AI_Model/model1/keypoint_classifier/no_pointer.tflite (tflite, 18416 bytes, 6 tensors)

sequential_3/dense_11/MatMul f4 [7, 64]
0	0x3f1ab054	0.60425305
1	0xbf118fb3	-0.5685989
2	0xbfb76d67	-1.4330262
3	0x3fb32e62	1.399853
4	0x39adf258	0.00033177692
5	0xbf88af75	-1.0678545
6	0xbf560241	-0.8359719
7	0xbe3d88e2	-0.18509248
8	0xbfeced62	-1.8509943
9	0xbf36adba	-0.71358836
10	0xbd208dc0	-0.039197683
11	0xbd23eb75	-0.04001947
12	0x3ec8f8d8	0.39252353
13	0x3e4614bd	0.19343849
14	0x3e911af1	0.28340867
15	0x3f633aaa	0.8876139
16	0x3e9f35a2	0.31095606
17	0xbe7c75bd	-0.24654289
18	0xbd940724	-0.072279245
19	0x3e0e06b9	0.13869752
20	0x3eee190e	0.4650349
21	0x3fb93810	1.4470234
22	0xbff65fe3	-1.9248012
23	0x3ea92395	0.3303496
24	0x3ee23b06	0.44185656
25	0xbfe34488	-1.7755289
26	0xbf2308c9	-0.6368528
27	0xbfb28f5c	-1.395
28	0xbf323b48	-0.69621706
29	0xbf0f52a4	-0.55985475
30	0x3f43663f	0.7632789
31	0x3f3c2121	0.7348805
32	0xbe376602	-0.17910007
33	0x3ea3e042	0.32007033
34	0xbf3801f0	-0.71877956
35	0xbea16d90	-0.31528902
36	0xbeb64420	-0.3559885
37	0x3f86d929	1.0535022
38	0x3e8c60c7	0.27417585
39	0x3f4a67af	0.7906446
40	0xbe935d51	-0.28782132
41	0x3e64b1c6	0.2233344
42	0x3ee9678e	0.45586818
43	0x3ea7e168	0.3278916
44	0xbdfbf4dd	-0.12302563
45	0xbbfe6df8	-0.007764574
46	0xbe77a73e	-0.24184892
47	0xbf986e71	-1.1908704
48	0x3edb3acb	0.42818293
49	0x3f1a3a3c	0.6024511
50	0xbe18f609	-0.14937605
51	0x3e437144	0.19086176
52	0x3efb4249	0.4907401
53	0xbf750311	-0.95707804
54	0xbfae52f5	-1.3619066
55	0x3f647cba	0.8925282
56	0x3d18fe11	0.03735167
57	0x3f3b3432	0.7312652
58	0x3f1b5683	0.6067888
59	0xbf619271	-0.88114077
60	0xbe93346d	-0.28750935
61	0xbe258841	-0.16165258
62	0xbf14470a	-0.57920897
63	0x3e061902	0.13095477
64	0xbe088d64	-0.13335186
65	0x3d27c7ab	0.040961903
66	0x3e507161	0.2035575
67	0xbf3be1bf	-0.73391336
68	0x3eb2f5e4	0.34953225
69	0x3f968a2a	1.1760914
70	0x3fa24bc1	1.2679368
71	0xbe824d7f	-0.2544975
72	0xbf926279	-1.1436301
73	0x3f00b3d8	0.5027442
74	0xbf1a0801	-0.60168463
75	0xbe993dc9	-0.2992995
76	0x3eecb8b7	0.46234676
77	0x3d789e9e	0.060698144
78	0x3e34eb88	0.17667973
79	0xbf470f93	-0.7775814
80	0x3ec8fe78	0.39256644
81	0xbedbf4b6	-0.42960137
82	0x3ee6484e	0.4497704
83	0xbf859568	-1.043622
84	0x3e88759d	0.26652232
85	0xbf3c513d	-0.7356146
86	0x3e66a06e	0.22522137
87	0xbf540fd6	-0.82836664
88	0xbef99e6c	-0.4875368
89	0x3f7ee104	0.99562097
90	0x3f354092	0.7080165
91	0x3e98376c	0.29729784
92	0x3cc09ce2	0.023512308
93	0xbee7acc2	-0.4524899
94	0xbfb5484f	-1.4162692
95	0x3f0d68f0	0.55238247
96	0xbe936f1b	-0.28795704
97	0xbe26f50e	-0.16304418
98	0x3e5d546c	0.21614236
99	0x3eb216b5	0.3478295
100	0x3b7e6570	0.0038817786
101	0xbf1fe752	-0.6246234
102	0xbd62a1cb	-0.05533008
103	0xbf97329b	-1.1812319
104	0xbf56fcaa	-0.83979285
105	0x3df88146	0.12134032
106	0xbe1d5f93	-0.1536849
107	0x3c15a5db	0.009133781
108	0xbe003756	-0.12521109
109	0x3da79fde	0.08184789
110	0x3e859f9c	0.26098335
111	0xbde68a9f	-0.112569086
112	0x3e858439	0.2607744
113	0xbf353afa	-0.70793116
114	0xbee4d890	-0.44696474
115	0xbf1dfe09	-0.6171575
116	0x3d8158d4	0.06315771
117	0xbe00abc7	-0.12565528
118	0x3f400e9c	0.7502229
119	0xbe9ed58f	-0.31022307
120	0xbe00df4a	-0.12585178
121	0xbfc03866	-1.5017211
122	0x3e99dda9	0.30051926
123	0xbec3f152	-0.3827005
124	0xbd2a13de	-0.041522853
125	0xbf11e5f3	-0.569915
126	0xbe0fe587	-0.14052401
127	0x3ea6e488	0.3259623
128	0xbf856ff9	-1.0424796
129	0xbeeda7c6	-0.46417063
130	0xbe1835e1	-0.14864303
131	0xbf8243db	-1.0176958
132	0xbecc3d4c	-0.39890516
133	0xbf4c56fa	-0.79820216
134	0xbee83ee3	-0.4536048
135	0x3e91820b	0.28419527
136	0xbf9ca481	-1.2237703
137	0xbf208462	-0.62702
138	0x3d987a7b	0.07445236
139	0xbf56b26b	-0.83865994
140	0xbe6cbf8a	-0.23119941
141	0xbf536fd5	-0.8259252
142	0xbe0048bb	-0.12527744
143	0xbcd5fd48	-0.02612175
144	0x3e64b30c	0.22333926
145	0x3f32b135	0.69801646
146	0xbf1c50c4	-0.6106074
147	0xbd975ef0	-0.07391155
148	0x3e8f87db	0.28033337
149	0xbe8b6b5d	-0.2723035
150	0x3f14f96e	0.581931
151	0xbee4f994	-0.44721663
152	0xbf7c47b0	-0.98546886
153	0x3d10a4d0	0.035313427
154	0x3f15480d	0.58313066
155	0xbdb9070f	-0.090345494
156	0xbea28750	-0.3174386
157	0xbd083abb	-0.033259135
158	0x3f4204a6	0.7578834
159	0xbf225050	-0.634038
160	0xbfaf7c7b	-1.3709863
161	0x3ee74bfe	0.45175165
162	0x3f5efca8	0.8710427
163	0x3ded66d2	0.11591877
164	0xbefd9d66	-0.49534148
165	0xbe0665f6	-0.13124833
166	0xbf6771f6	-0.90408266
167	0x3ed82a25	0.42219654
168	0x3f4e547b	0.80597657
169	0x3e7c09bf	0.24613093
170	0xbe169e39	-0.14708795
171	0xbf445ed9	-0.76707226
172	0x3f52a8af	0.8228864
173	0x3d15f2d6	0.03660854
174	0xbe9e3040	-0.30896187
175	0x3e44caa6	0.19217929
176	0xbee013f5	-0.43765226
177	0x3f3763b4	0.7163651
178	0x3ecaa766	0.3958084
179	0xbdba569e	-0.09098552
180	0x3dc6b715	0.09702889
181	0x3ed424d1	0.4143434
182	0x3f8f6b65	1.1204649
183	0xbf8c6fcb	-1.0971617
184	0x3eabe1e7	0.33570787
185	0xbe529a26	-0.20566615
186	0x3eaf6563	0.3425704
187	0x3f11aae5	0.5690139
188	0x3f2514e7	0.6448502
189	0xbe9a9601	-0.3019257
190	0xbe46f3d2	-0.19428948
191	0xbefd3c32	-0.49459988
192	0xbecdcb4e	-0.40194172
193	0x3e43fb55	0.19138844
194	0x3db709f0	0.08937442
195	0x3ec1bce7	0.37839434
196	0xbee90006	-0.4550783
197	0x3f430818	0.76184225
198	0xbf43b4e9	-0.7644792
199	0x3c274701	0.0102098
200	0x3f3f88f6	0.7481836
201	0x3ec9e2da	0.39430887
202	0x3e9b085a	0.3027981
203	0x3bea6e36	0.0071542514
204	0xbf499603	-0.78744525
205	0xbb324146	-0.002719955
206	0xbfdd7d2c	-1.7303824
207	0xbf45df52	-0.77293885
208	0xbf6b48e2	-0.91908085
209	0xbf26a6a7	-0.6509804
210	0xbc3b3813	-0.011426943
211	0xbd90e6c8	-0.07075268
212	0xbe09829a	-0.13428727
213	0x3de05c10	0.109550595
214	0x3ecb0886	0.3965494
215	0x3dfcab12	0.123373166
216	0x3e060e12	0.13091305
217	0xbf55564c	-0.83334804
218	0xbf722f1d	-0.9460314
219	0xbe39a330	-0.18128657
220	0x3ec9f279	0.39442804
221	0x3e551f5b	0.20812742
222	0x3dcc050e	0.099619016
223	0xbdb06430	-0.08612859
224	0xbd5408f3	-0.051766347
225	0x3f7bf569	0.9842134
226	0xbf15d430	-0.585269
227	0xbf1d5499	-0.6145721
228	0xbd8192b9	-0.06326813
229	0x3efecce3	0.4976569
230	0x3ea35448	0.3190024
231	0x3e0a4766	0.13503799
232	0xbeba686b	-0.3640779
233	0xbe4fc75e	-0.20290896
234	0xbeee1714	-0.46501982
235	0xbf007ddd	-0.5019205
236	0x3f0c0161	0.54689604
237	0x3d7a2d2f	0.061078247
238	0xbe18fc7b	-0.14940064
239	0x3e6b11d5	0.22956021
240	0xbf8f6d4a	-1.1205227
241	0xbf2416e9	-0.6409746
242	0x3ed26616	0.4109351
243	0xbe0f29af	-0.13980745
244	0x3e35474e	0.17702982
245	0x3e0923bf	0.13392542
246	0xbe991d52	-0.29905182
247	0x3d04101d	0.03224193
248	0x3f231f16	0.6371931
249	0x3e8e0e33	0.27745208
250	0xbe05075d	-0.1299109
251	0x3e9cb8c9	0.3060973
252	0xbe92d3eb	-0.28677306
253	0x3c7c7f44	0.015411202
254	0x3ea91bb0	0.33028936
255	0xbea124ba	-0.31473333

sequential_3/dense_10/BiasAdd/ReadVariableOp f4 [64]
0	0x3ce58845	0.02801908
1	0xbdbe133a	-0.09281011
2	0x3e4e30c8	0.20135796
3	0xbe4d269f	-0.20034264
4	0x3dfb8425	0.12281064
5	0x3d94d7ce	0.07267724
6	0x3eabebe1	0.335784
7	0x3e0c8f90	0.1372664
8	0x3ef31043	0.47473344
9	0x3d871a45	0.065968074
10	0x3d85fdaa	0.06542523
11	0x3e6fbbbf	0.23411463
12	0x3f42abb4	0.7604325
13	0x3df5cb8f	0.12001716
14	0x3f28fe3a	0.6601292
15	0x3e0d8b7f	0.13822745
16	0x3f28a811	0.6588145
17	0x3ee2e663	0.44316396
18	0x3de24253	0.110478066
19	0x3e1d6d3b	0.153737
20	0x3f494f01	0.78636175
21	0xbdbe7cd0	-0.0930115
22	0x3e965cce	0.2936768
23	0x3ef2ea74	0.474445
24	0x3e8bf075	0.27331892
25	0x3f0c09ff	0.5470275
26	0x3e8dfca9	0.27731827
27	0xbea33282	-0.31874472
28	0xbe34b451	-0.1764691
29	0xbe5dd872	-0.21664599
30	0x3e9f6cfa	0.3113783
31	0x3eacef45	0.33776298
32	0xbdfeaac2	-0.12434913
33	0x3f6fa218	0.9360671
34	0x3e86d766	0.2633621
35	0x3e2c39ea	0.16818967
36	0xbc45048a	-0.012025008
37	0x3e6658cf	0.22494815
38	0xbc71f974	-0.014768947
39	0x3eb41475	0.35171857
40	0x3ead211d	0.33814326
41	0x3f077c5d	0.5292414
42	0x3ee0795b	0.43842587
43	0x3f150f06	0.5822605
44	0xbdbdbe2b	-0.09264787
45	0x3f126099	0.57178646
46	0xbd9bc074	-0.07605067
47	0xbdeb4f86	-0.11489777
48	0x3f4fff82	0.8124925
49	0x3e7f25ec	0.2491681
50	0x3db90714	0.09034553
51	0x3d60a72f	0.05484694
52	0x3ea8229b	0.32838902
53	0x3e4b5c3e	0.19859406
54	0x3eac68bd	0.3367366
55	0x3e928da6	0.28623694
56	0x3df78879	0.12086577
57	0xbe51b518	-0.20479238
58	0x3f1d79e1	0.615141
59	0x3e5247ce	0.20535204
60	0xbabd1f80	-0.0014428943
61	0x3ea00ddb	0.3126057
62	0xbe5a0139	-0.21289529
63	0x3f26b6b5	0.6512254

sequential_3/dense_11/BiasAdd/ReadVariableOp f4 [7]
0	0x3d18a490	0.037266314
1	0x3dc31abf	0.09526586
2	0x3d9c05a5	0.07618264
3	0xbe1bdade	-0.1522021
4	0xbdb43938	-0.08799976
5	0x3b0ea330	0.0021764748
6	0xbd75fc20	-0.0600549

sequential_3/dense_9/BiasAdd/ReadVariableOp f4 [128]
0	0xbeeaeb6c	-0.45882738
1	0xbb542c93	-0.00323752
2	0x3d4eda28	0.05050102
3	0xbdeb646c	-0.11493763
4	0xbeb4fbde	-0.3534841
5	0xbe013aab	-0.12620036
6	0xbd08180a	-0.03322605
7	0xbd5c2704	-0.053748146
8	0xbeb9f310	-0.36318254
9	0xbe321c96	-0.17393717
10	0x3d66b279	0.05632255
11	0xbe82c907	-0.25543997
12	0xbdb15c1c	-0.086601466
13	0xbe65f6a1	-0.22457363
14	0xbcafde8d	-0.021468425
15	0xbe3205ff	-0.173851
16	0xbe22597a	-0.15854445
17	0xbe4fe48a	-0.20302024
18	0xbe296456	-0.16542181
19	0xbe4db1dd	-0.2008738
20	0xbe8af697	-0.27141258
21	0xbea24119	-0.3169029
22	0xbe8575c0	-0.260664
23	0xbddab6fb	-0.10679432
24	0xbde5e6be	-0.11225651
25	0xbd93b3ee	-0.07212053
26	0xbe2666ac	-0.16250104
27	0xbef21adf	-0.47286126
28	0xbdc96e1f	-0.09835457
29	0x3d1d4c81	0.038403038
30	0xbeb33940	-0.35004616
31	0xbeb8e39c	-0.36111152
32	0xbe59c45b	-0.2126631
33	0xbdfffe55	-0.12499682
34	0xbe446158	-0.19177759
35	0xbdb61fa1	-0.088927515
36	0xbe20ded0	-0.15709996
37	0xbebb631a	-0.36599046
38	0xbd62add9	-0.055341575
39	0xbef61ede	-0.48070425
40	0xbea5d255	-0.32387033
41	0x3dc230ba	0.0948195
42	0xbbacbe56	-0.0052717132
43	0xbdfe531c	-0.124181956
44	0xbe276769	-0.16348042
45	0xbe7cb3b1	-0.24677922
46	0x3e028596	0.12746271
47	0xbea9e0aa	-0.33179218
48	0x3d361c67	0.04446068
49	0xbe9e302f	-0.30896136
50	0x3d1f6c31	0.03892154
51	0xbe15b0ec	-0.14618272
52	0xbedde9d5	-0.43342462
53	0xbe75a008	-0.23986828
54	0x3d5a3f26	0.05328288
55	0xbe11aa6d	-0.14225169
56	0x3cffb92e	0.03121623
57	0x3cf30a72	0.029668067
58	0xbedafd42	-0.42771345
59	0xbca4ba06	-0.020108234
60	0xbe2433bf	-0.16035365
61	0xbf02f520	-0.5115528
62	0xbe2c1b3c	-0.16807264
63	0xbc37074d	-0.011171174
64	0xbe5b212b	-0.21399371
65	0xbe4499d7	-0.1919931
66	0xbe9e3378	-0.30898643
67	0xbe66d924	-0.2254377
68	0xbdd22867	-0.102616124
69	0xbe6e2879	-0.23257627
70	0x3c9e5925	0.019329617
71	0x3cb83248	0.022484913
72	0xbdbb1d59	-0.09136457
73	0xbdff02ae	-0.12451683
74	0xbe2bc11f	-0.16772889
75	0xbe9bc08c	-0.3042034
76	0xbd8dae47	-0.069180064
77	0xbe190bbc	-0.14945883
78	0xbe196263	-0.14978938
79	0xbe0e08f0	-0.13870597
80	0xbe5170fd	-0.20453258
81	0xbdcc18c0	-0.09965658
82	0xbf0c6e73	-0.5485603
83	0xbe0760a7	-0.13220464
84	0xbeb6734a	-0.35634834
85	0xbeae5879	-0.34051874
86	0xbe952a35	-0.29133764
87	0xbdee7bf1	-0.11644734
88	0xbf0f67d5	-0.5601781
89	0xbceedfa0	-0.029159367
90	0xbe6b784d	-0.2299511
91	0xbe68eaf7	-0.22745882
92	0xbe4ba46c	-0.1988694
93	0xbeb46fc4	-0.3524152
94	0x3d018713	0.031622957
95	0xbe5b3267	-0.21405946
96	0xbe633b89	-0.2219068
97	0xbebc1b1c	-0.36739433
98	0x3d775410	0.060382903
99	0xbe0ce901	-0.13760759
100	0xbea7f956	-0.32807416
101	0xbd606024	-0.054779187
102	0xbdd3c834	-0.1034092
103	0xbe774cb1	-0.24150349
104	0xbeabd1bc	-0.33558452
105	0xbe4b77c8	-0.19869912
106	0xbea9cb3e	-0.33162874
107	0xbf081bba	-0.5316731
108	0xbed5f4b3	-0.41788253
109	0xbca68c24	-0.020330496
110	0xbe22ca7d	-0.15897556
111	0xbf0d73b9	-0.55254704
112	0xbe321a85	-0.17392929
113	0xbe124725	-0.14284952
114	0xbe9b1654	-0.30290473
115	0xbe4cfa6e	-0.20017406
116	0xbe8ac20d	-0.27101174
117	0x3c89f8b6	0.016842227
118	0xbed1d5b6	-0.4098336
119	0xbe1d1af1	-0.15342309
120	0xbe757821	-0.23971607
121	0xbe8226a0	-0.25420094
122	0xbde86f18	-0.113493145
123	0xbe32a2a1	-0.1744485
124	0xbe0e7712	-0.13912609
125	0x3d03bb9a	0.032161333
126	0x3ab4f661	0.0013806337
127	0xbeed5540	-0.46354103

sequential_3/dense_9/MatMul i1 [128, 42] scale=0.008841604 zero_point=0
0	0xff	-0.008841604
1	0x0c	0.10609925
2	0x09	0.079574436
3	0x0e	0.123782456
4	0x0f	0.13262406
5	0xdc	-0.31829774
6	0x20	0.28293133
7	0xf3	-0.11494085
8	0x33	0.4509218
9	0x2f	0.4155554
10	0xdc	-0.31829774
11	0xf5	-0.097257644
12	0xd6	-0.37134737
13	0xf3	-0.11494085
14	0xbf	-0.5747043
15	0xff	-0.008841604
16	0xd8	-0.35366416
17	0x17	0.20335689
18	0xef	-0.15030727
19	0xfe	-0.017683208
20	0xe6	-0.2298817
21	0x06	0.053049624
22	0xde	-0.30061454
23	0x07	0.061891228
24	0xef	-0.15030727
25	0x08	0.07073283
26	0x0c	0.10609925
27	0xea	-0.19451529
28	0x01	0.008841604
29	0x0b	0.097257644
30	0x0f	0.13262406
31	0xe8	-0.2121985
32	0x06	0.053049624
33	0xfd	-0.026524812
34	0x0a	0.08841604
35	0x04	0.035366416
36	0x31	0.4332386
37	0x13	0.16799048
38	0x47	0.62775385
39	0x06	0.053049624
40	0x56	0.76037794
41	0x19	0.2210401
42	0xed	-0.16799048
43	0xf7	-0.079574436
44	0xf5	-0.097257644
45	0xda	-0.33598095
46	0x09	0.079574436
47	0xce	-0.4420802
48	0x02	0.017683208
49	0xfa	-0.053049624
50	0xe4	-0.24756491
51	0x68	0.9195268
52	0xe0	-0.28293133
53	0xf5	-0.097257644
54	0x00	0.0
55	0xfe	-0.017683208
56	0x02	0.017683208
57	0xe8	-0.2121985
58	0x15	0.18567368
59	0xe1	-0.27408972
60	0xf7	-0.079574436
61	0xfe	-0.017683208
62	0xef	-0.15030727
63	0x01	0.008841604
64	0xf6	-0.08841604
65	0x03	0.026524812
66	0xff	-0.008841604
67	0xf3	-0.11494085
68	0x0a	0.08841604
69	0x0a	0.08841604
70	0x0e	0.123782456
71	0xf1	-0.13262406
72	0xeb	-0.18567368
73	0x08	0.07073283
74	0x11	0.15030727
75	0x04	0.035366416
76	0x2e	0.40671378
77	0xf0	-0.14146566
78	0x0b	0.097257644
79	0xeb	-0.18567368
80	0x03	0.026524812
81	0x19	0.2210401
82	0x04	0.035366416
83	0x47	0.62775385
84	0xf1	-0.13262406
85	0x09	0.079574436
86	0xea	-0.19451529
87	0xcd	-0.4509218
88	0x03	0.026524812
89	0x0d	0.11494085
90	0x16	0.19451529
91	0x08	0.07073283
92	0xd3	-0.39787218
93	0x04	0.035366416
94	0x27	0.34482256
95	0xe7	-0.2210401
96	0xf7	-0.079574436
97	0x0a	0.08841604
98	0xe8	-0.2121985
99	0xf2	-0.123782456
100	0xf8	-0.07073283
101	0xeb	-0.18567368
102	0x21	0.29177293
103	0x0b	0.097257644
104	0xe3	-0.25640652
105	0xf1	-0.13262406
106	0xe3	-0.25640652
107	0xd6	-0.37134737
108	0x1f	0.27408972
109	0xf9	-0.061891228
110	0x0c	0.10609925
111	0xe8	-0.2121985
112	0xdd	-0.30945614
113	0x11	0.15030727
114	0xe5	-0.23872331
115	0x13	0.16799048
116	0x3b	0.5216546
117	0x08	0.07073283
118	0x1d	0.25640652
119	0x09	0.079574436
120	0x01	0.008841604
121	0x09	0.079574436
122	0xf2	-0.123782456
123	0x21	0.29177293
124	0xdb	-0.32713935
125	0x21	0.29177293
126	0xee	-0.15914887
127	0x0a	0.08841604
128	0x1f	0.27408972
129	0xea	-0.19451529
130	0x12	0.15914887
131	0xef	-0.15030727
132	0x07	0.061891228
133	0xe9	-0.20335689
134	0xf0	-0.14146566
135	0xe0	-0.28293133
136	0xff	-0.008841604
137	0x28	0.35366416
138	0x0c	0.10609925
139	0x04	0.035366416
140	0x03	0.026524812
141	0xed	-0.16799048
142	0xed	-0.16799048
143	0xff	-0.008841604
144	0xe6	-0.2298817
145	0x30	0.424397
146	0xd0	-0.424397
147	0x0f	0.13262406
148	0xf8	-0.07073283
149	0xdb	-0.32713935
150	0x0e	0.123782456
151	0xd9	-0.34482256
152	0xf8	-0.07073283
153	0x07	0.061891228
154	0xea	-0.19451529
155	0xf0	-0.14146566
156	0x1b	0.23872331
157	0x0b	0.097257644
158	0x1c	0.24756491
159	0x32	0.4420802
160	0x1f	0.27408972
161	0xdb	-0.32713935
162	0x06	0.053049624
163	0xec	-0.17683208
164	0x12	0.15914887
165	0x0f	0.13262406
166	0xf2	-0.123782456
167	0x31	0.4332386
168	0x09	0.079574436
169	0xfa	-0.053049624
170	0x3c	0.53049624
171	0xd9	-0.34482256
172	0x08	0.07073283
173	0xdd	-0.30945614
174	0xf0	-0.14146566
175	0xf5	-0.097257644
176	0xf6	-0.08841604
177	0x26	0.33598095
178	0xfa	-0.053049624
179	0xe8	-0.2121985
180	0x04	0.035366416
181	0x16	0.19451529
182	0xfe	-0.017683208
183	0xfc	-0.035366416
184	0xff	-0.008841604
185	0xf5	-0.097257644
186	0xfa	-0.053049624
187	0xf4	-0.10609925
188	0xf0	-0.14146566
189	0x0f	0.13262406
190	0xfc	-0.035366416
191	0x12	0.15914887
192	0x29	0.36250576
193	0xd2	-0.40671378
194	0xf6	-0.08841604
195	0x09	0.079574436
196	0xed	-0.16799048
197	0x25	0.32713935
198	0xf4	-0.10609925
199	0xf6	-0.08841604
200	0x1c	0.24756491
201	0xd3	-0.39787218
202	0x1a	0.2298817
203	0xf9	-0.061891228
204	0x13	0.16799048
205	0x19	0.2210401
206	0xea	-0.19451529
207	0x05	0.04420802
208	0xf0	-0.14146566
209	0xde	-0.30061454
210	0xf3	-0.11494085
211	0xff	-0.008841604
212	0x41	0.5747043
213	0x17	0.20335689
214	0x1e	0.26524812
215	0xf1	-0.13262406
216	0x19	0.2210401
217	0xf5	-0.097257644
218	0xe6	-0.2298817
219	0x2b	0.38018897
220	0x27	0.34482256
221	0x23	0.30945614
222	0xe2	-0.26524812
223	0xf4	-0.10609925
224	0xf5	-0.097257644
225	0x22	0.30061454
226	0xe6	-0.2298817
227	0x1e	0.26524812
228	0x29	0.36250576
229	0xfa	-0.053049624
230	0xc0	-0.56586266
231	0xf7	-0.079574436
232	0xe1	-0.27408972
233	0x07	0.061891228
234	0x00	0.0
235	0x1c	0.24756491
236	0x31	0.4332386
237	0x0c	0.10609925
238	0xea	-0.19451529
239	0x00	0.0
240	0xdb	-0.32713935
241	0xef	-0.15030727
242	0x0c	0.10609925
243	0xfa	-0.053049624
244	0x44	0.6012291
245	0xe9	-0.20335689
246	0x2a	0.37134737
247	0xe1	-0.27408972
248	0x05	0.04420802
249	0xfe	-0.017683208
250	0x1a	0.2298817
251	0xd5	-0.38018897
252	0xf0	-0.14146566
253	0xf1	-0.13262406
254	0xf0	-0.14146566
255	0xd3	-0.39787218

sequential_3/dense_10/MatMul i1 [64, 128] scale=0.019938149 zero_point=0
0	0x03	0.059814446
1	0xe5	-0.53833
2	0x06	0.11962889
3	0x0a	0.19938149
4	0xff	-0.019938149
5	0xef	-0.33894852
6	0xf2	-0.2791341
7	0x11	0.33894852
8	0x0c	0.23925778
9	0x00	0.0
10	0xf3	-0.25919592
11	0xf4	-0.23925778
12	0xfa	-0.11962889
13	0x0c	0.23925778
14	0xfa	-0.11962889
15	0xee	-0.35888666
16	0x0c	0.23925778
17	0xc3	-1.216227
18	0xf7	-0.17944333
19	0xf6	-0.19938149
20	0x02	0.039876297
21	0xfa	-0.11962889
22	0xf9	-0.13956705
23	0xfc	-0.079752594
24	0x09	0.17944333
25	0x0a	0.19938149
26	0xee	-0.35888666
27	0x0c	0.23925778
28	0xf0	-0.31901038
29	0x0c	0.23925778
30	0xf3	-0.25919592
31	0x06	0.11962889
32	0x0a	0.19938149
33	0x1c	0.5582682
34	0xfd	-0.059814446
35	0xfb	-0.09969074
36	0x02	0.039876297
37	0x10	0.31901038
38	0xfa	-0.11962889
39	0x11	0.33894852
40	0xf5	-0.21931964
41	0xff	-0.019938149
42	0x18	0.47851557
43	0x0f	0.29907224
44	0xfa	-0.11962889
45	0x03	0.059814446
46	0x13	0.37882483
47	0x0a	0.19938149
48	0x09	0.17944333
49	0xdd	-0.6978352
50	0x05	0.09969074
51	0x00	0.0
52	0xf7	-0.17944333
53	0x04	0.079752594
54	0x07	0.13956705
55	0xf8	-0.15950519
56	0x03	0.059814446
57	0xfc	-0.079752594
58	0x0e	0.2791341
59	0x08	0.15950519
60	0x01	0.019938149
61	0x0b	0.21931964
62	0xdf	-0.6579589
63	0x13	0.37882483
64	0xcc	-1.0367837
65	0x03	0.059814446
66	0xff	-0.019938149
67	0x02	0.039876297
68	0x06	0.11962889
69	0xe1	-0.6180826
70	0xf5	-0.21931964
71	0x12	0.35888666
72	0xe8	-0.47851557
73	0x1f	0.6180826
74	0x0a	0.19938149
75	0xfd	-0.059814446
76	0x03	0.059814446
77	0xde	-0.67789704
78	0xef	-0.33894852
79	0xfd	-0.059814446
80	0xf9	-0.13956705
81	0xe3	-0.5782063
82	0x11	0.33894852
83	0xdc	-0.7177733
84	0xf8	-0.15950519
85	0x18	0.47851557
86	0x0f	0.29907224
87	0xf8	-0.15950519
88	0x08	0.15950519
89	0x02	0.039876297
90	0x10	0.31901038
91	0xe0	-0.63802075
92	0xf9	-0.13956705
93	0x10	0.31901038
94	0xf2	-0.2791341
95	0x06	0.11962889
96	0x0a	0.19938149
97	0x12	0.35888666
98	0x12	0.35888666
99	0xf7	-0.17944333
100	0xfa	-0.11962889
101	0x01	0.019938149
102	0xf4	-0.23925778
103	0xf6	-0.19938149
104	0xff	-0.019938149
105	0x03	0.059814446
106	0xe9	-0.45857742
107	0x0b	0.21931964
108	0x0c	0.23925778
109	0x00	0.0
110	0xf5	-0.21931964
111	0x09	0.17944333
112	0x0e	0.2791341
113	0x03	0.059814446
114	0xf3	-0.25919592
115	0x06	0.11962889
116	0xb2	-1.5551755
117	0xfd	-0.059814446
118	0xfe	-0.039876297
119	0x12	0.35888666
120	0x17	0.45857742
121	0x0f	0.29907224
122	0x08	0.15950519
123	0x06	0.11962889
124	0x03	0.059814446
125	0x0c	0.23925778
126	0x09	0.17944333
127	0x0b	0.21931964
128	0xf6	-0.19938149
129	0xe1	-0.6180826
130	0x09	0.17944333
131	0x06	0.11962889
132	0xfc	-0.079752594
133	0x17	0.45857742
134	0x19	0.4984537
135	0x07	0.13956705
136	0x09	0.17944333
137	0xfe	-0.039876297
138	0xfd	-0.059814446
139	0x09	0.17944333
140	0x02	0.039876297
141	0xfa	-0.11962889
142	0x24	0.7177733
143	0x05	0.09969074
144	0x0c	0.23925778
145	0x08	0.15950519
146	0x0c	0.23925778
147	0xf7	-0.17944333
148	0xf8	-0.15950519
149	0xfa	-0.11962889
150	0x08	0.15950519
151	0x04	0.079752594
152	0x05	0.09969074
153	0x07	0.13956705
154	0x10	0.31901038
155	0x01	0.019938149
156	0x10	0.31901038
157	0xf4	-0.23925778
158	0xeb	-0.4187011
159	0x15	0.4187011
160	0xf8	-0.15950519
161	0x08	0.15950519
162	0x09	0.17944333
163	0xf3	-0.25919592
164	0x16	0.43863928
165	0xfc	-0.079752594
166	0xcc	-1.0367837
167	0xd9	-0.7775878
168	0xef	-0.33894852
169	0xf7	-0.17944333
170	0x01	0.019938149
171	0x02	0.039876297
172	0x06	0.11962889
173	0x04	0.079752594
174	0xfd	-0.059814446
175	0xd4	-0.87727857
176	0x08	0.15950519
177	0x0a	0.19938149
178	0x02	0.039876297
179	0x09	0.17944333
180	0xbb	-1.3757323
181	0xe0	-0.63802075
182	0x11	0.33894852
183	0xf7	-0.17944333
184	0x0a	0.19938149
185	0xfa	-0.11962889
186	0xec	-0.39876297
187	0xfc	-0.079752594
188	0x05	0.09969074
189	0xfc	-0.079752594
190	0x06	0.11962889
191	0xf0	-0.31901038
192	0xf4	-0.23925778
193	0x02	0.039876297
194	0xf8	-0.15950519
195	0xfe	-0.039876297
196	0xe8	-0.47851557
197	0x12	0.35888666
198	0xfb	-0.09969074
199	0xe2	-0.5981445
200	0x0c	0.23925778
201	0xef	-0.33894852
202	0xe8	-0.47851557
203	0xff	-0.019938149
204	0xe6	-0.51839185
205	0x17	0.45857742
206	0x0a	0.19938149
207	0xee	-0.35888666
208	0x0d	0.25919592
209	0x04	0.079752594
210	0xdf	-0.6579589
211	0x1b	0.53833
212	0x09	0.17944333
213	0xf2	-0.2791341
214	0x0a	0.19938149
215	0x02	0.039876297
216	0x18	0.47851557
217	0xf1	-0.29907224
218	0xfe	-0.039876297
219	0x0a	0.19938149
220	0x14	0.39876297
221	0x03	0.059814446
222	0xf6	-0.19938149
223	0x09	0.17944333
224	0x11	0.33894852
225	0xf6	-0.19938149
226	0x06	0.11962889
227	0xe9	-0.45857742
228	0x00	0.0
229	0x03	0.059814446
230	0x06	0.11962889
231	0xfc	-0.079752594
232	0x0c	0.23925778
233	0x10	0.31901038
234	0x19	0.4984537
235	0xfb	-0.09969074
236	0x06	0.11962889
237	0xe4	-0.5582682
238	0xf5	-0.21931964
239	0xea	-0.43863928
240	0x01	0.019938149
241	0x03	0.059814446
242	0xda	-0.75764966
243	0x10	0.31901038
244	0x11	0.33894852
245	0xf9	-0.13956705
246	0x00	0.0
247	0xec	-0.39876297
248	0x0a	0.19938149
249	0x0c	0.23925778
250	0x06	0.11962889
251	0xf5	-0.21931964
252	0xfc	-0.079752594
253	0xfa	-0.11962889
254	0x0c	0.23925778
255	0x04	0.079752594
