AI_Model/model/keypoint_classifier/keypoint_classifier.tflite (tflite, 6720 bytes, 6 tensors)

sequential/dense/BiasAdd/ReadVariableOp f4 [20]
0	0xbf70d221	-0.9407063
1	0xbe42a03b	-0.19006436
2	0x3eeb12ff	0.4591293
3	0xbf0b72c6	-0.54472005
4	0xbe36b5ff	-0.17842864
5	0xbf058c31	-0.5216704
6	0xbd9afafe	-0.07567404
7	0xbe4aea8a	-0.19816032
8	0xbe1fecb4	-0.15617639
9	0xbf4e6d7b	-0.80635804
10	0xbf03b3a9	-0.51446015
11	0xbf129d91	-0.5727168
12	0x3e9ca381	0.30593494
13	0xbe2c8ec4	-0.16851336
14	0xbe828354	-0.2549082
15	0x3dbc1c2a	0.09185059
16	0xbc4b19a1	-0.012396247
17	0x3f1f6150	0.6225786
18	0xbece2092	-0.40259224
19	0xbe37a303	-0.17933278

sequential/dense_2/BiasAdd/ReadVariableOp f4 [8]
0	0xbebc0932	-0.36725765
1	0x3f0e0dd9	0.5548988
2	0xbf141041	-0.578373
3	0xbf0deade	-0.55436504
4	0xbd383d62	-0.044980414
5	0xbdb44472	-0.088021174
6	0x3e7f0884	0.24905592
7	0x3f94014a	1.1562893

sequential/dense_1/BiasAdd/ReadVariableOp f4 [10]
0	0x3f55b844	0.8348429
1	0xbec7ae05	-0.38999954
2	0xbba1ca81	-0.0049374704
3	0xbe81c149	-0.25342777
4	0xbc930977	-0.01794885
5	0xbec60967	-0.38679048
6	0x3f399d43	0.7250559
7	0x3e5ee36c	0.21766442
8	0x3e382c34	0.17985612
9	0x3e5d498e	0.2161009

sequential/dense/MatMul f4 [20, 42]
0	0xbe3a5032	-0.18194655
1	0xbdc3b35a	-0.09555693
2	0xbda3b233	-0.07992973
3	0x3e54a4cc	0.2076599
4	0x3d8008e1	0.062516935
5	0x3e22f184	0.15912443
6	0x3deee046	0.116638705
7	0xbe4a6c75	-0.19767936
8	0x3e2ded01	0.16984941
9	0xbe4aa3be	-0.19789025
10	0x3ce697ac	0.028148495
11	0x3d7b1666	0.061300658
12	0xbdacac51	-0.08431304
13	0x3bf18523	0.0073706075
14	0xbebfbdf6	-0.37449616
15	0x3c662bcf	0.014048531
16	0xbeac4879	-0.33649042
17	0x3d955f1a	0.0729353
18	0x3d8b9e09	0.06817252
19	0xbd760cc8	-0.060070783
20	0x3d6d2a43	0.057901632
21	0xbd393a28	-0.045221478
22	0xbf0457ca	-0.51696455
23	0x3b2067f8	0.0024476033
24	0xbf34f8a4	-0.70691895
25	0x3d9f4dd2	0.07778515
26	0x3caa9c0e	0.020826366
27	0x3dbfbe89	0.093625136
28	0xbdb6fa0c	-0.089344114
29	0x3d270da1	0.040784482
30	0xbec21807	-0.37908956
31	0xbc3a6f9f	-0.011379152
32	0xbf837919	-1.0271331
33	0x3cc8995f	0.024487196
34	0xbefb03f3	-0.4902645
35	0xbc7d2ea5	-0.015453015
36	0xbe89d053	-0.2691675
37	0x3d1d082f	0.038337883
38	0xbee5ea35	-0.44905248
39	0xbe1db3de	-0.15400645
40	0xbf7f8fe1	-0.99828917
41	0xbcd67d30	-0.02618274
42	0xbe72b06d	-0.23700114
43	0x3e5ef144	0.21771723
44	0x3c61b296	0.013775488
45	0xbfade220	-1.3584633
46	0xbba6f606	-0.0050952462
47	0xbf578913	-0.84193534
48	0xbea87af1	-0.32906297
49	0xbec01da0	-0.37522602
50	0xbf0fad5f	-0.5612392
51	0x3d9b3e11	0.075801976
52	0xbed8e0cd	-0.4235901
53	0xbeb513c2	-0.35366637
54	0xbe25b0e0	-0.16180754
55	0xbe3f9ef0	-0.18712974
56	0xbcc9c44a	-0.02462973
57	0x3e178c53	0.14799623
58	0x3c3902ef	0.011292203
59	0x3ea31b50	0.31856775
60	0xbeed21c2	-0.46314818
61	0xbedc2ef5	-0.43004575
62	0x3d096eaf	0.03355282
63	0xbbebcc98	-0.0071960203
64	0x3df30979	0.11867041
65	0x3e84540e	0.2584538
66	0x3e912c1b	0.28353962
67	0x3e8b0ebe	0.27159685
68	0xbe06e2ee	-0.13172504
69	0xbe51b36e	-0.20478603
70	0x3dffa558	0.12482709
71	0x3dbc392e	0.09190594
72	0x3e9e9fd3	0.3098131
73	0x3e75c358	0.24000299
74	0x3e8e81ce	0.27833408
75	0x3e804119	0.25049666
76	0x3e5a3e88	0.21312916
77	0xbebd4fc1	-0.3697491
78	0x3e751732	0.2393463
79	0xbbe51cf0	-0.006991975
80	0x3efe098f	0.49616668
81	0x3ea1cbf7	0.31600925
82	0x3edcabd9	0.4309986
83	0x3ea887b4	0.32916033
84	0xbd2f66b8	-0.04282257
85	0xbc790800	-0.015199661
86	0xbed7f6af	-0.42180392
87	0x3e1ce678	0.15322292
88	0xbe226a15	-0.1586078
89	0x3efd5281	0.49477008
90	0xbe3ede9e	-0.18639609
91	0x3f13736f	0.5759801
92	0xbf14e855	-0.5816701
93	0x3f499d38	0.7875552
94	0x3d0c507c	0.034256443
95	0x3ee3d487	0.44498083
96	0x3d811fab	0.06304868
97	0x3edeb4db	0.43497357
98	0x3d58e10d	0.052949
99	0x3e8aa3d4	0.27078116
100	0x3d0d1ba0	0.034450173
101	0x3eae7bd3	0.34078845
102	0x3dcca33b	0.09992071
103	0x3e795f8b	0.24352853
104	0xbd14b61c	-0.036306486
105	0x3e2a2a4f	0.16617702
106	0x3d350890	0.04419762
107	0x3e8d3245	0.27577415
108	0x3d54facb	0.051996987
109	0x3e2ebf9d	0.17065282
110	0x3e507207	0.20355998
111	0xbdc872fc	-0.097875565
112	0x3dc5eb68	0.09664041
113	0x3c92b1ef	0.017907111
114	0x3e284632	0.16433027
115	0xbdd91c32	-0.10601081
116	0x3e2e22df	0.1700549
117	0xbdb4a606	-0.08820729
118	0x3eb87b0e	0.36031383
119	0xbf03b842	-0.5145303
120	0x3e8764a6	0.26443976
121	0xbf020bff	-0.50799555
122	0x3dd5fa12	0.10448088
123	0xbec27c34	-0.37985384
124	0x3e4f62ff	0.20252608
125	0xbeb13bee	-0.34616035
126	0xbdcafd2a	-0.099115685
127	0xbda33df2	-0.079707995
128	0x3d802a82	0.06258108
129	0x3e5827b3	0.21108894
130	0x3d4c2973	0.049844217
131	0x3e08d4be	0.13362405
132	0x3b9015ff	0.0043971534
133	0xbb4ab02c	-0.003092776
134	0xbcd95d2b	-0.026533684
135	0xbfb98ccc	-1.4496093
136	0xbde90edb	-0.113797866
137	0x3db8209e	0.08990596
138	0x3d089d31	0.033353034
139	0x3dd62a5f	0.104573004
140	0x3d0e969b	0.034811597
141	0x3e017bfd	0.12644954
142	0xbde136df	-0.10996794
143	0x3e03ea8c	0.12882441
144	0xbe2bc511	-0.16774394
145	0x3b005669	0.0019582754
146	0xbc539f90	-0.012916461
147	0x3d603d9a	0.054746248
148	0x3d42f1fc	0.047594056
149	0x3de0417f	0.109499924
150	0xbe0ef71f	-0.13961457
151	0x3dd26b8a	0.10274418
152	0xbed2a041	-0.4113789
153	0xbdf0064f	-0.11719953
154	0x3d4f2d5a	0.05058036
155	0x3bc995da	0.006151897
156	0x3d0b2131	0.0339672
157	0x3d9d37b5	0.07676641
158	0x3d753940	0.05986905
159	0x3d5329cd	0.051553536
160	0xbe8e9f0f	-0.27855727
161	0xbe358e51	-0.1773007
162	0x3e295c62	0.16539147
163	0xbcd329a4	-0.025776692
164	0x3dc21f68	0.094786465
165	0x3d878bc1	0.06618453
166	0x3d57cf6d	0.05268805
167	0x3d59b686	0.053152584
168	0xbe05ae9e	-0.13054892
169	0xbdf045e4	-0.117320806
170	0xbd7ae54d	-0.061253835
171	0x3f32cf9e	0.6984805
172	0x3d0627ee	0.032752924
173	0x3e9d70d6	0.3075015
174	0xbd8c21c6	-0.06842379
175	0x3e05f229	0.13080658
176	0xbe792f10	-0.24334359
177	0x3c9f5825	0.01945121
178	0x3de2ada0	0.110682726
179	0x3e6ae445	0.2293864
180	0x3dce1bba	0.10063882
181	0x3de53628	0.1119197
182	0xbd8acad3	-0.06776967
183	0xbd4a915e	-0.04945504
184	0xbc3aa083	-0.011390808
185	0xbec574db	-0.38565716
186	0x3e141887	0.14462481
187	0x3e1ca223	0.15296225
188	0x3d98a027	0.07452422
189	0xb971e187	-0.00023067567
190	0xbc2f34cb	-0.010693739
191	0xbe8dd9c6	-0.2770521
192	0xbdae8e7d	-0.08523271
193	0xbf911b2d	-1.1336418
194	0x3ca41dca	0.020033736
195	0x3dc07edd	0.09399197
196	0x3c8a7e26	0.016905855
197	0x3e1dd180	0.15411949
198	0xbd192436	-0.03738805
199	0x3dfcb473	0.123391055
200	0xbd90887c	-0.07057282
201	0x3d9cdf23	0.076597475
202	0x3caaa6ba	0.020831455
203	0x3e3a5272	0.18195513
204	0x3e0b6896	0.13614115
205	0x3dd8add5	0.10580031
206	0xbdaf4af8	-0.08559221
207	0x3e645751	0.22298934
208	0xbda3a406	-0.07990269
209	0x3e806e68	0.25084233
210	0x3dd67f10	0.10473454
211	0x3e95dafa	0.29268628
212	0x3e1e0f12	0.15435436
213	0x3de41344	0.11136487
214	0x3e30e911	0.17276408
215	0x3d22b88d	0.039726783
216	0x3e6ca0d3	0.23108225
217	0x3d9681b0	0.07348955
218	0x3ea6988a	0.32538253
219	0x3d4e796f	0.050408777
220	0xbc6add42	-0.014334979
221	0xbdad2f72	-0.08456315
222	0x3d80f740	0.06297159
223	0x3cbb3b76	0.022855502
224	0xbd1c1e7a	-0.038115002
225	0xbd6170fa	-0.055039383
226	0xbe85e4a4	-0.26151
227	0xbe08d29b	-0.1336159
228	0xbda5a91a	-0.08088894
229	0x3d2ad201	0.04170418
230	0x3c7b748a	0.015347609
231	0x3db25142	0.08706905
232	0xbd552389	-0.052035842
233	0x3c606e1e	0.013698129
234	0xbebc924d	-0.3683037
235	0xbc5db112	-0.013530986
236	0xbdac2da3	-0.08407142
237	0x3df46dbb	0.11934992
238	0xbd26bbee	-0.040706567
239	0x3e06b487	0.13154803
240	0xbdd9d20d	-0.10635767
241	0xbe40d245	-0.18830211
242	0xbf337bd1	-0.70110804
243	0xbf5f6175	-0.8725808
244	0xbd9b7d95	-0.07592312
245	0x3e62390e	0.22092077
246	0x3d8496f4	0.064741045
247	0x3e2209af	0.15824006
248	0xbed215a2	-0.4103213
249	0x3d062504	0.032750145
250	0xbf058bbd	-0.5216635
251	0xbeecc049	-0.46240452
252	0x3e5951a0	0.21222544
253	0xbe70e8a6	-0.23526248
254	0x3dac97f5	0.08427421
255	0xbeb11f70	-0.34594297

sequential/dense_1/MatMul f4 [10, 20]
0	0xbe8eb433	-0.27871856
1	0x3da4930e	0.08035861
2	0xbe8e77c6	-0.27825755
3	0x3e89e7a3	0.26934537
4	0x3f50d2b3	0.815715
5	0x3f095b31	0.5365477
6	0xbec4974c	-0.3839668
7	0x3f3dc5f5	0.74130183
8	0xbdc6ed7a	-0.09713264
9	0x3f205944	0.6263621
10	0x3d357368	0.044299513
11	0x3e39d2e7	0.18146859
12	0xbecee373	-0.40407905
13	0xbea8a2c1	-0.3293667
14	0x3f04d86a	0.5189272
15	0xbea2e102	-0.31812292
16	0x3e83b2cf	0.25722358
17	0xbe346a8c	-0.1761877
18	0x3f8a4acf	1.080408
19	0xbe8fe865	-0.2810699
20	0x3ef96eb1	0.48717263
21	0x3fa5447b	1.2911524
22	0xbda491fe	-0.08035658
23	0x3fba269b	1.4543031
24	0xbf04eb99	-0.51921993
25	0xbe1df53b	-0.15425579
26	0x3f191da4	0.59810853
27	0x3ef92a58	0.48665118
28	0x3e335e80	0.17516518
29	0x3e8ff499	0.281163
30	0x3f5997f5	0.84997493
31	0x3f08a419	0.53375393
32	0x3e66ac1e	0.22526595
33	0xbc731440	-0.014836371
34	0x3e472086	0.19446
35	0xbc8910f3	-0.016731715
36	0x3fb47385	1.4097754
37	0x3e397f24	0.18114907
38	0x3dce3035	0.100677885
39	0xbeb642d4	-0.3559786
40	0x3e9a91b0	0.30189276
41	0x3de6a5f9	0.112621255
42	0x3f47111d	0.7776049
43	0xbd5cc2f1	-0.053896848
44	0xbdcdcb4c	-0.100485414
45	0x3d10a3b4	0.03531237
46	0xbe66fc6b	-0.22557227
47	0x3d972147	0.07379394
48	0x3e2eca41	0.17069341
49	0x3e75d34b	0.24006383
50	0x3eac468f	0.33647582
51	0x3e7aa793	0.24477987
52	0x3f814a21	1.0100747
53	0xbfe577b8	-1.792716
54	0x3d7727de	0.060340755
55	0x3ef5d0a4	0.48010743
56	0x3e4dc0b3	0.2009304
57	0x3ec23b79	0.37936
58	0x3eaf4186	0.34229678
59	0x3e8abc74	0.27096903
60	0x3f494b90	0.78630924
61	0x3e2afa86	0.1669713
62	0xbec7086f	-0.38873622
63	0x3fa74b1c	1.3069797
64	0xbed3e517	-0.4138572
65	0x3c5a616f	0.013328894
66	0x3f3c0241	0.7344094
67	0x3dd00d66	0.101588055
68	0x3f3a65b0	0.7281141
69	0x3e0eaed2	0.13933876
70	0x3e3b3196	0.18280634
71	0x3f42a7e7	0.7603745
72	0xbdd0bb29	-0.10191948
73	0x3f2f7d3a	0.68550456
74	0x3f2240b5	0.63379985
75	0x3f32bebf	0.69822305
76	0x3e2abae4	0.16672856
77	0x3ed156ff	0.40886685
78	0xbed295c5	-0.4112989
79	0x3f412867	0.75452274
80	0x3ef11b47	0.47091123
81	0x3eaaa2bf	0.3332729
82	0x3e09a2fb	0.13441078
83	0x3e9a9b19	0.30196455
84	0xbcb6809d	-0.022278124
85	0xbf37967b	-0.7171399
86	0x3e3ac5c2	0.18239501
87	0x3d4cebcf	0.050029572
88	0x3e508754	0.20364124
89	0xbe50a3a8	-0.2037493
90	0xbd714f67	-0.058913615
91	0x3f3a9bb4	0.72893834
92	0x3d789234	0.060686305
93	0xbe2443e4	-0.16041523
94	0xbe88615d	-0.26636782
95	0xbeadf5c4	-0.33976567
96	0x3de2c393	0.11072459
97	0x3da8e3b1	0.08246554
98	0x3f10c700	0.5655365
99	0xbeb72a35	-0.3577439
100	0x3f527962	0.82216465
101	0xbe5d8444	-0.21632487
102	0xbe4d88db	-0.20071737
103	0x3e9a4c17	0.30136177
104	0x3e0c62e3	0.13709597
105	0x3f378dde	0.7170085
106	0xbe2faea5	-0.17156465
107	0xbcda9844	-0.026683934
108	0x3e65f5dd	0.2245707
109	0x3ea451a9	0.32093552
110	0x3ec29c9e	0.38010114
111	0x3f087f8d	0.5331963
112	0x3d9a0787	0.07520967
113	0x3dd858f0	0.105638385
114	0xbe83732f	-0.25673816
115	0x3c6e8a23	0.014559302
116	0xbf00a2e9	-0.5024858
117	0xbf60fe29	-0.8788782
118	0xbe3adff1	-0.1824949
119	0x3e619847	0.22030745
120	0x3d33eb1a	0.043925382
121	0x3dc2fd97	0.09521025
122	0xbf41f051	-0.7575732
123	0x3f4b8eab	0.7951457
124	0x3e7d4df3	0.24736767
125	0xbd4064d7	-0.04697117
126	0x3f63c938	0.8897891
127	0x3e127278	0.14301479
128	0x3f3c53e5	0.7356551
129	0xbd86f0a5	-0.06588868
130	0xbd52e36a	-0.05148641
131	0x3e9eea82	0.3103829
132	0xbde5bce6	-0.1121767
133	0x3d5528a7	0.052040722
134	0xbe8841d8	-0.26612735
135	0xbea4ee29	-0.32212952
136	0x3e8aec70	0.27133512
137	0x3e089853	0.13339357
138	0xbf4389ae	-0.7638196
139	0xbe16ec0a	-0.1473848
140	0x3e27473e	0.1633577
141	0x3eb408fb	0.35163102
142	0x3f40c4b3	0.7530014
143	0x3d7a9e7a	0.06118629
144	0x3ed674a5	0.41885868
145	0xbf0a53ed	-0.5403431
146	0xbeb31fe0	-0.34985256
147	0x3eb310cc	0.34973752
148	0xbe2fabcc	-0.17155379
149	0x3f51ba0f	0.8192453
150	0x3ce5c64d	0.028048659
151	0xbe6a817b	-0.22900955
152	0x3f0f6744	0.56016946
153	0xbe17d41e	-0.1482701
154	0xbe346deb	-0.17620055
155	0x3e7a484a	0.24441639
156	0x3dfe8f87	0.124297194
157	0xbc00e567	-0.007867194
158	0xbef2404d	-0.47314683
159	0x3eae663d	0.34062377
160	0x3d37284f	0.044716176
161	0xbe5ef685	-0.21773727
162	0x3f2cb69a	0.6746613
163	0x3ebc6627	0.36796686
164	0xbc5b4097	-0.013382099
165	0x3f036b13	0.5133526
166	0xbea814d2	-0.32828385
167	0x3da3ac12	0.07991804
168	0xbdabe8a4	-0.08393982
169	0x3cef775b	0.029231718
170	0xbd1be801	-0.038063053
171	0x3f2d006c	0.6757877
172	0x3e3c16d2	0.1836808
173	0x3f2344b9	0.6377674
174	0x3f87a96a	1.0598576
175	0x3f5bd185	0.85866576
176	0xbf479cb8	-0.7797351
177	0xbeaf2f73	-0.34215888
178	0x3f8b88c6	1.0901115
179	0x3f5f854d	0.87312776
180	0x3e0f8e29	0.14019074
181	0xbdd2f45d	-0.10300515
182	0xbe480f68	-0.19537127
183	0x3dd45f1a	0.10369702
184	0xbf3e5101	-0.7434235
185	0x3ec7f4a1	0.39053825
186	0xbedba65a	-0.42900354
187	0xbdb08659	-0.08619375
188	0xbd97ee45	-0.07418493
189	0xbe5a91e2	-0.21344712
190	0x3d514c27	0.051098015
191	0x3dd11df0	0.10210788
192	0xbe3b0370	-0.1826303
193	0x3dd9118f	0.10599052
194	0xbf0c6e32	-0.54855645
195	0x3dcaac8f	0.09896194
196	0x3d0ff9c2	0.035150297
197	0x3f949c5b	1.1610216
198	0xbf12be30	-0.57321453
199	0x3c3e2783	0.0116061

sequential/dense_2/MatMul f4 [8, 10]
0	0xbf14483a	-0.5792271
1	0x3ec4320c	0.38319433
2	0x3c5bceb6	0.013415983
3	0x3f41abaa	0.75652564
4	0xbec34ff8	-0.3814695
5	0xbf0377ec	-0.5135486
6	0x3e023d88	0.12718785
7	0x3f266e11	0.650117
8	0x3e0731d7	0.13202606
9	0xbf37be9e	-0.71775234
10	0x3f852fe6	1.0405242
11	0xbf49c6c2	-0.78818905
12	0xbeee7c3a	-0.46579152
13	0xbf5a7749	-0.85338265
14	0xbee1d61a	-0.4410866
15	0xbdfca5d9	-0.123363204
16	0xbf767080	-0.9626541
17	0xbe636afc	-0.2220878
18	0x3d9fc16c	0.07800564
19	0xbf43db25	-0.76506263
20	0x3eafa790	0.34307528
21	0x3e2f146c	0.17097634
22	0xbef12da7	-0.47105142
23	0x3de8c8dd	0.11366437
24	0x3f4d40e3	0.80177134
25	0x3f95ecdc	1.1712909
26	0xbf857112	-1.0425131
27	0xbe410ba9	-0.18852104
28	0x3e8a44d9	0.27005652
29	0xbec16fb7	-0.37780544
30	0xbe18a9af	-0.14908479
31	0x3f2ea44e	0.6821946
32	0xbf481634	-0.7815888
33	0x3f1815c5	0.5940822
34	0x3f2a7cee	0.6659688
35	0x3de5fdad	0.112300254
36	0x3daed465	0.08536605
37	0xbfbd139c	-1.4771609
38	0xbf9a1921	-1.2038919
39	0x3f195e40	0.5990944
40	0xbf9eaed5	-1.2397105
41	0x3b2295ce	0.0024808529
42	0x3f3bc05f	0.7334041
43	0x3d8c9dac	0.06866011
44	0xbc2bee7d	-0.010493872
45	0x3f0f1e31	0.55905443
46	0xbf28e2d9	-0.6597114
47	0xbf03147f	-0.5120315
48	0x3f382b0f	0.719407
49	0xbf1b5769	-0.6068025
50	0xbdb6fe4a	-0.089352205
51	0x3f1393a0	0.5764713
52	0x3ec37e53	0.38182315
53	0xbf881c8a	-1.063371
54	0x3f17ddb2	0.59322655
55	0xbf4b5ef1	-0.79441744
56	0xbf894f18	-1.0727262
57	0x3f206254	0.62650037
58	0xbf87d2e9	-1.061124
59	0x3ef97746	0.4872381
60	0xbee44e42	-0.44590956
61	0xbf998b6a	-1.1995671
62	0x3e76ff73	0.24120884
63	0x3f2916ab	0.66050214
64	0xbe8bf6a4	-0.2733661
65	0xbe7d6f7b	-0.24749558
66	0xbf3888bd	-0.72083646
67	0xbf6361c7	-0.8882107
68	0x3f01e52f	0.5074033
69	0x3f47e4f3	0.78083724
70	0x3ed43b88	0.4145167
71	0xbf694deb	-0.9113452
72	0xbfd22032	-1.6416075
73	0xbf0363e3	-0.5132429
74	0xbf828542	-1.0196917
75	0xc00a2b44	-2.1588907
76	0x3f4a1c00	0.78948975
77	0x3f2bc3aa	0.67095435
78	0xbf89e836	-1.077399
79	0xbfa726b8	-1.3058691
