AI_Model/model/keypoint_classifier/new_keypoint.tflite (tflite, 6720 bytes, 6 tensors)

sequential/dense/BiasAdd/ReadVariableOp f4 [20]
-1.3673959 -0.60759836 -0.0007782835 -1.061943 -0.061720528 -0.9718834 -0.013439233 0.27006966
0.29290622 -0.18174064 -0.8278524 0.8363263 -0.8906242 0.3630172 -0.37429732 -0.60044646
-0.045603406 -0.044769064 -0.021821316 0.19133317
00000000: d406 afbf 918b 1bbf b905 4cba c0ed 87bf
00000010: aace 7cbd 5acd 78bf 3b30 5cbc 9246 8a3e
00000020: cef7 953e 381a 3abe 23ee 53bf 7b19 563f
00000030: f3ff 63bf 64dd b93e e6a3 bfbe dcb6 19bf
00000040: a3ca 3abd c45f 37bd 9ec2 b2bc d8ec 433e

sequential/dense_2/BiasAdd/ReadVariableOp f4 [8]
-0.07444716 0.6084791 0.2643335 0.42825827 -0.82404697 -1.1322231 -0.6196027 0.8674547
00000000: c177 98bd 49c5 1b3f b856 873e ab44 db3e
00000010: bef4 52bf b0ec 90bf 489e 1ebf 8311 5e3f

sequential/dense_1/BiasAdd/ReadVariableOp f4 [10]
0.9469043 1.2428328 0.27510822 -0.1874008 -0.11959641 2.0342968 1.453851 0.5610362
0.32964087 0.27022752
00000000: 5268 723f 2515 9f3f fcda 8c3e ffe5 3fbe
00000010: f6ee f4bd eb31 0240 ca17 ba3f 12a0 0f3f
00000020: b0c6 a83e 435b 8a3e

sequential/dense/MatMul f4 [20, 42]
-0.21317425 -0.109941706 -0.17992109 0.034247395 -0.25379318 -0.15307376 -0.66713375 -0.074282005
-0.8026336 -0.06190493 -0.022811787 -0.6350028 -0.01331826 -0.40073416 0.17615476 -0.0819983
0.16558832 -0.016246941 0.01648846 -0.70281833 -0.0030891958 -0.2493271 0.12584844 0.19306119
0.14236546 0.13352738 0.081743486 -0.8222891 0.0053127785 -0.36146477 0.11865262 -0.06080161
0.20189735 0.14133352 0.15100612 -0.73229957 0.05834288 -0.43208894 0.08414957 -0.105127685
0.12499741 -0.13572466 0.0051312745 -0.04776886 0.2523894 -0.123783536 0.09998694 0.017724194
0.11271795 0.05200531 0.111854 0.11185162 -0.14849341 0.02707747 0.002267196 0.013675344
0.0109048635 0.073530056 -0.019807898 0.05677151 -0.17653744 0.04930382 -0.010861728 0.075007446
-0.009758407 0.10440409 -0.14943606 -1.490272 -0.16280806 0.08994741 0.11758119 0.08898453
0.11734118 0.053881552 -0.003349879 0.057162 -0.054040186 0.17242053 0.10797029 0.09638001
0.09841133 0.049340308 0.07594996 -0.006247432 0.023255616 0.19948977 -0.1404621 0.7964615
-0.1362746 0.31617102 -0.5644042 0.24942 -0.6476898 0.23414543 -0.0019934326 0.10119208
0.049613684 0.096103445 0.09231552 0.09357471 0.16498332 0.08422227 0.09236649 0.02944469
-0.05240914 0.06532792 0.16906236 0.07047813 0.22066937 0.05874357 -0.009323826 -0.00084397284
-0.032530952 0.01757431 0.121672 0.022977686 0.21759963 -1.1069407 0.22347538 -0.021161161
0.041265793 0.03500058 0.0018221965 0.022990983 0.037736986 0.026615418 -0.17982481 0.2665586
0.116195485 0.10903119 0.13085417 0.023689829 0.27723128 0.058629055 0.25712788 0.04735972
-0.11635496 0.09608582 0.03872736 0.016114721 0.016585214 -0.02705193 -0.105106644 -0.09299715
-0.15139669 0.09778982 0.074056245 -0.046203915 0.020982435 -1.2529019 -0.17209762 -0.034783732
-0.123798 0.14538765 0.12713188 0.04296038 0.08355583 -0.43680167 -0.07812494 -0.37770906
-0.037854098 0.27190524 0.09911784 0.16303732 0.12352897 -0.1320547 -0.012768354 -0.4665808
0.30105895 -0.071988165 0.29045677 0.7673387 0.3371414 0.40914243 0.4051387 0.32391578
0.49572888 0.34303942 -0.089191094 0.15900742 0.13828442 0.12649514 0.17346616 0.16664146
0.22629768 0.13989988 -0.0773591 0.06208233 0.2212631 0.08319564 0.1212002 0.097432554
-0.085197814 -0.032168344 -0.064771615 0.02223987 0.2775495 -0.028817436 -0.063184835 -0.17382543
-0.5551007 0.026428578 -0.074220575 -0.10240194 -0.09116679 -0.12985761 -0.40670988 -0.2810955
-0.7451593 -0.7555442 0.15974537 0.22866201 -0.15090305 -0.08535564 0.04854354 -0.007687153
-0.035888694 0.077034965 0.026900496 0.14766322 -0.011338637 0.57653713 -0.051646378 0.27660695
-0.070693254 -0.024684306 -0.043092236 -0.23068987 -0.07554529 0.697475 0.066138156 0.31487176
0.08854176 0.026874153 -0.07074585 -0.1502798 0.050040916 0.6879864 0.060602404 0.4203106
-0.03471075 0.069594726 0.0087519875 -0.020359883 0.06304675 0.63930625 0.08527355 0.28735018
0.07790152 0.1511692 -0.016347297 0.23044357 0.23683387 0.01190716 -0.2546223 -0.54079145
00000000: 5a4a 5abe 1e29 e1bd 3c3d 38be ff46 0c3d
00000010: 2ef1 81be 5ebf 1cbe 47c9 2abf 2a21 98bd
00000020: 6579 4dbf 0690 7dbd c9df babc 8b8f 22bf
00000030: d534 5abc 072d cdbe ea61 343e baee a7bd
00000040: fc8f 293e 4e18 85bc cf12 873c e7eb 33bf
00000050: 1b74 4abb 9a4f 7fbe 6ade 003e d5b1 453e
00000060: 40c8 113e 67bb 083e 2169 a73d 8a81 52bf
00000070: d116 ae3b e911 b9be 2500 f33d 1c0b 79bd
00000080: 2ebe 4e3e bcb9 103e 59a1 1a3e fc77 3bbf
00000090: f2f8 6e3d c33a ddbe 9c56 ac3d 2f4d d7bd
000000a0: a4fe ff3d 68fb 0abe 4024 a83b 48a9 43bd
000000b0: 2f39 813e 3982 fdbd f4c5 cc3d 5432 913c
000000c0: abd8 e63d 8503 553d b613 e53d 7612 e53d
000000d0: a80e 18be 92d1 dd3c 3d95 143b 8d0e 603c
000000e0: 50aa 323c ed96 963d 2c44 a2bc 3e89 683d
000000f0: 3bc6 34be cdf2 493d 64f5 31bc 819d 993d
00000100: bae1 1fbc d0d1 d53d c405 19be 3cc1 bebf
00000110: 28b7 26be 5936 b83d 68ce f03d 853d b63d
00000120: 9350 f03d e7b2 5c3d a589 5bbb b422 6a3d
00000130: 3e59 5dbd 028f 303e 871f dd3d e262 c53d
00000140: e18b c93d 1019 4a3d a78b 9b3d 42b7 ccbb
00000150: 9082 be3c 0c47 4c3e 4cd5 0fbe e7e4 4b3f
00000160: 928b 0bbe 2be1 a13e cb7c 10bf f567 7f3e
00000170: 00cf 25bf d2c3 6f3e 40a4 02bb cb3d cf3d
00000180: b837 4b3d e2d1 c43d eb0f bd3d 19a4 bf3d
00000190: 63f1 283e ba7c ac3d a42a bd3d fe35 f13c
000001a0: f7aa 56bd a5ca 853d af1e 2d3e d656 903d
000001b0: 27f7 613e 199d 703d f6c2 18bc 0f3e 5dba
000001c0: 2d3f 05bd 00f8 8f3c 2b2f f93d b33b bc3c
000001d0: 70d2 5e3e 3cb0 8dbf bbd6 643e 2c5a adbc
000001e0: 5206 293d c55c 0f3d c5d6 ee3a 9657 bc3c
000001f0: 1992 1a3d 9408 da3c ff23 38be 5e7a 883e
00000200: e6f7 ed3d bf4b df3d a3fe 053e 2c11 c23c
00000210: 42f1 8d3e 0525 703d 44a6 833e 44fc 413d
00000220: 824b eebd a4c8 c43d 95a0 1e3d 0503 843c
00000230: b7dd 873c 029c ddbc 2742 d7bd 4a75 bebd
00000240: bc07 1bbe 0746 c83d cdaa 973d 5140 3dbd
00000250: 5be3 ab3c 175f a0bf 5c3a 30be 6379 0ebd
00000260: ce89 fdbd 80e0 143e dc2e 023e 39f7 2f3d
00000270: 521f ab3d 78a4 dfbe f8ff 9fbd 1563 c1be
00000280: e60c 1bbd 2a37 8b3e 4bfe ca3d 41f3 263e
00000290: c2fc fc3d 5939 07be 5c32 51bc aee3 eebe
000002a0: 6624 9a3e 886e 93bd c0b6 943e 4f70 443f
000002b0: cc9d ac3e 1e7b d13e 576e cf3e 4ad8 a53e
000002c0: 2dd0 fd3e dda2 af3e d2a9 b6bd d7d2 223e
000002d0: 6e9a 0d3e f187 013e 1da1 313e 0fa4 2a3e
000002e0: 94ba 673e ea41 0f3e 736e 9ebd 0b4a 7e3d
000002f0: cb92 623e 7a62 aa3d cf37 f83d b88a c73d
00000300: 317c aebd f4c2 03bd fba6 84bd 6330 b63c
00000310: f81a 8e3e 8b12 ecbc 0d67 81bd 4bff 31be
00000320: 141b 0ebf bf80 d83c f500 98bd 1cb8 d1bd
00000330: a7b5 babd 65f9 04be 473c d0be c0eb 8fbe
00000340: c3c2 3ebf 586b 41bf 4a94 233e 6026 6a3e
00000350: 5486 1abe f0ce aebd 97d5 463d 83e4 fbbb
00000360: 0600 13bd 82c4 9d3d 6e5e dc3c 0735 173e
00000370: b1c5 39bc f097 133f 278b 53bd 6d9f 8d3e
00000380: a0c7 90bd be36 cabc 7c81 30bd f739 6cbe
00000390: 7db7 9abd b98d 323f 7173 873d df36 a13e
000003a0: 6255 b53d 2f27 dc3c 33e3 90bd f3e2 19be
000003b0: b4f7 4c3d e01f 303f 3a3a 783d f332 d73e
000003c0: dc2c 0ebd ae87 8e3d 7f64 0f3c c5c9 a6bc
000003d0: a81e 813d 93a9 233f e6a3 ae3d 901f 933e
000003e0: d58a 9f3d 19cc 1a3e c4ea 85bc 66f9 6b3e
000003f0: 9484 723e 4016 433c db5d 82be 4f71 0abf

sequential/dense_1/MatMul f4 [10, 20]
0.5775908 -1.7071524 -0.057063814 -0.48579064 -0.046186972 0.6110684 -0.105899 0.078681454
-0.07224523 -0.23857164 0.41833976 -0.3226158 0.12558351 -0.26612112 -0.8198354 0.06138456
-0.17081237 -0.6618829 0.09003139 -0.17203057 0.80920124 1.7417402 -0.31554142 1.192587
-0.17383493 0.23241137 0.012909606 0.0082837865 -0.06847838 0.20542508 0.8405315 -1.8566353
1.4067113 0.07333766 0.7416492 -0.15903616 -0.101870246 -0.08953186 -0.32019237 -0.038209233
0.07726812 -0.06916218 -1.4910948 0.28072214 0.47962296 0.79844826 -1.1964318 -0.79186267
-0.68168443 0.50452787 0.2912055 0.38682556 -1.5091122 0.5360451 0.055545777 -0.14121246
0.65042084 0.77256846 -1.6234171 -0.9064114 0.4773289 -0.4050876 0.4443422 0.15818705
-0.45383364 0.23135349 1.1323779 0.23930863 0.6679001 -1.0778823 0.1253833 0.5095506
0.46681026 -0.24333598 -0.1263594 -0.2866354 -0.068684354 0.5250421 0.24807224 0.4106891
0.11717675 0.33089417 -0.81260943 0.07045616 -0.6447596 0.46134385 0.5877026 0.21271044
0.42773163 0.62395954 -0.16658182 0.16874966 0.15410028 0.7973268 -0.04916768 -0.019467875
0.3207862 1.1206002 -1.3664708 0.580818 -0.021125222 0.099246435 -1.1227905 -0.049355283
-1.5300775 -0.5032552 0.16194603 0.23511761 0.32675403 -0.18658891 0.0320271 -0.30676162
0.3027474 0.10675384 -1.4585999 0.6749895 -1.4072971 -0.21724413 -1.0090756 0.29328737
-0.40013218 -0.71737903 0.1261282 0.081945166 0.051721893 -0.18494113 0.007846521 -1.8453888
-0.69620687 -0.6331496 -0.12427371 0.13245259 -0.7695481 -0.4638833 -0.025006128 -0.28215852
0.13706563 -0.23443449 0.03600889 -1.0878084 0.085982814 0.21544282 0.80318 0.3262836
0.28531536 -0.5314203 0.086724825 0.15251914 -0.43746495 0.07165671 0.059263226 -0.06379542
0.42477247 -1.1522297 0.9999863 -0.9903643 -0.15153618 -0.55370337 0.36379024 -0.28658324
-1.1608032 0.26734358 0.23008494 0.1728209 -0.041276485 0.8236893 0.19794321 0.20518869
0.2750695 -0.6892166 0.09672509 0.51951385 0.46358415 0.25687048 0.30697715 0.383414
0.09652129 -0.22619095 -0.06925261 0.44326922 0.18455927 0.50757056 0.103462934 -1.0153841
0.32310134 -0.39772186 -0.20170125 0.4450382 -0.379917 -0.058875266 0.21161318 -0.048726175
-0.4681353 -0.45848954 0.7374954 1.0959492 0.18896382 -0.4395244 0.13956824 -0.5695809
00000000: fedc 133f f883 dabf bfbb 69bd 8db9 f8be
00000010: 8d2e 3dbd fb6e 1c3f 93e1 d8bd be23 a13d
00000020: 4ff5 93bd 204c 74be a130 d63e e62d a5be
00000030: f798 003e 0741 88be bce0 51bf 606e 7b3d
00000040: 70e9 2ebe 2871 29bf 6162 b83d c828 30be
00000050: d027 4f3f 58f1 de3f a58e a1be b1a6 983f
00000060: c901 32be 3ffd 6d3e d082 533c b8b8 073c
00000070: 653e 8cbd f45a 523e 132d 573f 3aa6 edbf
00000080: 1e0f b43f 0e32 963d b9dc 3d3f 60da 22be
00000090: 59a1 d0bd 7b5c b7bd 41f0 a3be 4981 1cbd
000000a0: c03e 9e3d e7a4 8dbd 32dc bebf d0ba 8f3e
000000b0: 2491 f53e 1b67 4c3f ad24 99bf 83b7 4abf
000000c0: df82 2ebf bd28 013f e318 953e 000e c63e
000000d0: 972a c1bf 403a 093f f883 633d 009a 10be
000000e0: fb81 263f 0cc7 453f 22cc cfbf 940a 68bf
000000f0: 7464 f43e a467 cfbe d280 e33e c9fb 213e
00000100: e25c e8be eee7 6c3e c2f1 903f 520d 753e
00000110: 80fb 2a3f 0cf8 89bf 7b64 003e e871 023f
00000120: c101 ef3e 112d 79be 5c64 01be e0c1 92be
00000130: 62aa 8cbd 2969 063f a606 7e3e d745 d23e
00000140: 5dfa ef3d f66a a93e 2c07 50bf 524b 903d
00000150: f70e 25bf 4335 ec3e ad73 163f c4d0 593e
00000160: a4ff da3e d0bb 1f3f 6d94 2abe b6cc 2c3e
00000170: 77cc 1d3e 9c1d 4c3f 0d64 49bd 187b 9fbc
00000180: 173e a43e d46f 8f3f 84e8 aebf 7db0 143f
00000190: cd0e adbc b741 cb3d 99b7 8fbf c428 4abd
000001a0: 94d9 c3bf 55d5 00bf 2ed5 253e acc2 703e
000001b0: 4e4c a73e 2a11 3fbe d92e 033d dc0f 9dbe
000001c0: b501 9b3e c2a1 da3d 67b3 babf 1dcc 2c3f
000001d0: 5022 b4bf 3f75 5ebe 6429 81bf c329 963e
000001e0: 20de ccbe 27a6 37bf c027 013e ded2 a73d
000001f0: 56da 533d 3561 3dbe b28e 003c b335 ecbf
00000200: 9d3a 32bf 1816 22bf 3783 febd a7a1 073e
00000210: 1b01 45bf 1d82 edbe a7d9 ccbc 1577 90be
00000220: ef5a 0c3e 980f 70be 0f7e 133d 4e3d 8bbf
00000230: c217 b03d 0b9d 5c3e 349d 4d3f a50e a73e
00000240: db14 923e 290b 08bf c99c b13d fa2d 1c3e
00000250: 68fb dfbe c1c0 923d ffbd 723d 2ca7 82bd
00000260: c77b d93e 437c 93bf 1aff 7f3f 8488 7dbf
00000270: 4d2c 1bbe 81bf 0dbf b742 ba3e 0abb 92be
00000280: 3395 94bf 42e1 883e 639b 6b3e f6f7 303e
00000290: 8811 29bd 4ddd 523f a0b1 4a3e fc1c 523e
000002a0: e9d5 8c3e 8070 30bf ce17 c63d dcfe 043f
000002b0: e75a ed3e 8784 833e 1c2c 9d3e d74e c43e
000002c0: f4ac c53d 9a9e 67be 50d4 8dbd 2ff4 e23e
000002d0: 1bfd 3c3e 25f0 013f 60e4 d33d 1bf8 81bf
000002e0: 8a6d a53e 33a2 cbbe c68a 4ebe 0cdc e33e
000002f0: 7b84 c2be 3127 71bd 20b1 583e 1995 47bd
00000300: 6eaf efbe 24bf eabe 80cc 3c3f 1048 8c3f
00000310: bb7f 413e 5809 e1be faea 0e3e 0ed0 11bf

sequential/dense_2/MatMul f4 [8, 10]
-0.8193042 0.53985006 0.03285461 0.37576926 -0.13348852 -0.4923842 -0.24081548 0.18211041
-0.20504442 -0.051018998 -0.38930947 0.6538817 -0.98873687 -1.1305262 -0.7693439 -0.31146032
-0.91896737 0.7827426 -0.74507123 -0.2892377 -0.47057098 0.8516474 -0.9850646 -1.1720632
-0.49154285 0.81029207 -1.0355039 -0.97708297 -0.7972083 -0.71201324 -1.5655636 -1.353017
-0.5182735 -0.018951349 0.79894555 0.75059825 0.31911033 0.15798993 -0.7259149 0.6500637
-0.32183173 -1.0533017 -0.42689234 -0.016788121 0.7421572 -0.37064677 1.5692375 -0.003223046
0.16225927 1.10894 0.6928237 -0.15815222 0.4017741 0.76583046 -0.12051882 -0.4979019
-0.4852339 0.059529435 0.467963 -0.77538484 0.12534696 0.2076341 0.8065116 0.5042782
-0.17832501 -0.88797516 -0.09693144 -0.6099624 0.4097971 -0.58225226 0.5053252 -0.14914818
0.18554279 -0.6343899 -0.59239435 1.2016644 -1.0308374 -1.1452098 -1.203884 -0.6445411
00000000: ecbd 51bf 9d33 0a3f 8e92 063d d464 c03e
00000010: 37b1 08be c819 fcbe 5598 76be 277b 3a3e
00000020: 2af7 51be 4cf9 50bd 9253 c7be cb64 273f
00000030: dc1d 7dbf 15b5 90bf b9f3 44bf ba77 9fbe
00000040: 7241 6bbf d261 483f fdbc 3ebf f716 94be
00000050: aeee f0be 9005 5a3f 322d 7cbf 2b06 96bf
00000060: 81ab fbbe 4d6f 4f3f 648b 84bf 1c22 7abf
00000070: d815 4cbf 8046 36bf 6364 c8bf a92f adbf
00000080: 92ad 04bf dc3f 9bbc b287 4c3f 3527 403f
00000090: 6e62 a33e 1dc8 213e 8fd5 39bf 936a 263f
000000a0: 21c7 a4be 97d2 86bf a291 dabe 3e87 89bc
000000b0: 04fe 3d3f 6ac5 bdbe c6dc c83f bd39 53bb
000000c0: 4b27 263e bff1 8d3f e55c 313f a8f2 21be
000000d0: 56b5 cd3e 770d 443f 92d2 f6bd ffec febe
000000e0: 9470 f8be 23d5 733d d998 ef3e 9f7f 46bf
000000f0: f45a 003e 099e 543e 8b77 4e3f 6018 013f
00000100: d59a 36be 5752 63bf fe83 c6bd 7f26 1cbf
00000110: edd0 d13e 7c0e 15bf fe5c 013f 4dba 18be
00000120: eefe 3d3e 6067 22bf 28a7 17bf 24d0 993f
00000130: 7bf2 83bf 3c96 92bf df18 9abf a500 25bf
