AI_Model/model/keypoint_classifier/no_pointer.tflite (tflite, 6676 bytes, 6 tensors)

sequential/dense/BiasAdd/ReadVariableOp f4 [20]
00000000: 2924 5abf c3b4 b43f 2c92 43bf 71ca 8e3d
00000010: c3d2 35bd 29ce 9fbf 3516 53bc a519 84bf
00000020: 5d54 3b3e 710c c4bd 1c11 0ebf fe70 843d
00000030: f000 5fbd bfae 5cbf cca2 49bf a477 4fbf
00000040: 6e8d 40bf 4d3c 7dbf dd7f 813e 2a2d 1abe
-0.85211426 1.4117664 -0.76394916 0.069722064 -0.04439045 -1.248479 -0.012883713 -1.0320326
0.18293901 -0.095726855 -0.55494857 0.06466864 -0.054444253 -0.8620414 -0.78764033 -0.8104193
-0.75215805 -0.98920137 0.25292864 -0.15056291

sequential/dense_2/BiasAdd/ReadVariableOp f4 [7]
00000000: 81d6 a63d f3c4 f73e a18b 9c3e 4e4e 843e
00000010: 7c9a 1dbe aa58 31bf 89b1 9cbe
0.08146382 0.48392448 0.30575278 0.25840992 -0.15390962 -0.69275916 -0.306042

sequential/dense_1/BiasAdd/ReadVariableOp f4 [10]
00000000: b3b7 b5be 6638 e13f d782 fa3f febc bd3f
00000010: f18c 5f3f e702 d73e 4362 803f 1668 263f
00000020: b203 d83f 645c 85be
-0.35491714 1.7595336 1.9571179 1.4823301 0.87324435 0.41994402 1.0029987 0.6500257
1.6876128 -0.2604705

sequential/dense/MatMul f4 [20, 42]
00000000: 225e 17be cef2 eebd bcca 693d a11e 6d3c
00000010: 652e 41be 1253 8c3d a6b8 15be 45a8 01bd
00000020: d28c 84bd 9293 25be 0f85 85bc 2a63 5c3d
00000030: 3a3b d1bd 5040 3d3d a216 10be 98b3 cebc
00000040: d2b9 0fbe d12a c9bd 9bbf a7bd b9ad fa3c
00000050: 0aaf 39be 9205 02bd 6b66 46be 4b45 ebbd
00000060: e81d 81be db2e 1cbe faae 86be e241 753c
00000070: 3280 b6be fa4b 16bb 2559 87be 95e0 0f3d
00000080: 5262 48be 185d ac3d 0d2c ebbe 5767 ecbc
00000090: 7d47 bfbe 5c3c ec3a 6d87 92be 82c4 653d
000000a0: 9fc4 62be 1a0e 3f3d 00d7 93bc da0b 8f3e
000000b0: 8f48 2b3e 529e 273d 2e9e 9b3d 027c 1c3e
000000c0: 9a8d ce3d c0cb 043e e1dd d43d 98a6 d13d
000000d0: 1568 22be b33c 0b3f dafa 493d e32f 943e
000000e0: 8698 7d3d 47c2 ca3d 1ba4 52bd 529e 493d
000000f0: 6f57 edbd 25fc 4e3f fc82 563d 4991 dc3e
00000100: f039 693d 4308 4f3e 1c2d 82bc 0017 1b3e
00000110: 8ed4 22be 7e86 883f f37e 1e3d acf4 c33e
00000120: 4b49 5c3c b253 333e a125 403b 1b79 52be
00000130: c708 3abb 8533 3c3f 22ec 9e3d bb7d c13e
00000140: 8428 d33d fb43 323e 4dbe 1b3d ee0b 543d
00000150: 9dbb 83be 967c f6bd d41c 063e 5866 c43e
00000160: 83a4 eb3d add2 b43d 3985 113e 41ef be3c
00000170: 371c d73d dd20 f0bc 0063 e8bc 8148 f73c
00000180: 9a7e e33b 3a77 743c b850 26bb a3ac 0cbd
00000190: 34e1 6fbd eda6 91bd 0be7 14be cbe6 1f3d
000001a0: cded a43d ab46 e03c e025 843d 844c 0abd
000001b0: 1e51 a7bd 8826 39bd c7b0 2ebe a882 d63d
000001c0: e277 143d 8c82 f23c c71a 493c c06e da37
000001d0: 7b82 b0bb ce7f ee3c 8999 2dbe 0f0e 533e
000001e0: 7687 153d bfd6 063e 9c8e 843d 34a8 d13d
000001f0: 6ae9 d53d e5fe d6bf b0b1 f23c 5cb0 6d3e
00000200: 9a90 4f3e 3095 c8bf 3125 833e e34a 0abf
00000210: 972b db3e 2f7d c7be de0c 1c3f 1c0c 9ebe
00000220: 6c69 63be 84b2 fbbd af44 95bd cb59 cdbd
00000230: e2a2 a8bc 4885 2cbe 8296 243c 06cb 4bbe
00000240: 4a8e 7bbe e88d 543c 94a0 9bbd 97b8 66ba
00000250: ad62 cf3d 2b59 76bd a030 3e3c 8787 cbbd
00000260: 5578 a3be 4fb6 2f3e 2898 bf3c 5a0a 053e
00000270: 2bec fc3d 4f24 aa3e 059b a1bd ac0a 923e
00000280: eb1a 4fbe 4a88 b63e 2f37 56bd 7549 843e
00000290: fbf7 b13d 584c df3e 49bd 463d 0456 f43e
000002a0: 50b8 9c3e 0022 55bd b258 5e3f e89a c23e
000002b0: 172e 163f d8d4 cb3d 230a 033f 6fe0 863e
000002c0: 26f6 013f 0ddf fe3e be02 9f3e 0397 bfbd
000002d0: 3799 973c 5b09 9f3c cce7 893d 4532 643e
000002e0: 63b9 2d3d 15b8 b53e 529e 05be cc42 06be
000002f0: 2fbd 13bd 1234 193d 66bf 2f3e d0d3 8c3e
00000300: 51b1 453e c5ae c83e 1896 06bf bf5b 61be
00000310: 19ba 48be 8350 5ebd c87e 70bd 50d7 8b3e
00000320: 4563 493d 8b06 903e c0af 85bf 4e33 bebe
00000330: 6498 0abf 3bbf 99be 9f7b 67bd 4a7e 8a3d
00000340: 213b f93d e9da 513e 3a6a 97be 7275 973e
00000350: 4c6a 9dbd ae31 4c3d af89 69be dc85 46be
00000360: 1d4d 92be ff6f adbd 5988 91be eb98 dabc
00000370: ef7d 52bb b7f8 11bf 4bfd 76bc e6dd c7be
00000380: cced 3ebb 30eb 3a3d 27e0 8fbd 2d85 913e
00000390: 5d2b 113e 1220 2ebf 2b73 fabc 2f1a 9cbe
000003a0: 40d2 893d 5061 4f3e 726b 913d cd3e bb3e
000003b0: 7a87 8cbc e4a3 14bf 8a3c 90bd 6b60 d1be
000003c0: 63c0 a53d 3836 93bd 6ca3 f63d be9e 463c
000003d0: ee3d 05bd 1403 14bf 33f7 85bd 311a fbbe
000003e0: b54f 743e 3019 69be 00d9 b13e fcaf 69bc
000003f0: ba74 febd 8841 4cbe e92a d13e 9bbf 8abf
-0.14782003 -0.11667405 0.05707811 0.0144726345 -0.18865354 0.06851782 -0.14621219 -0.031654615
-0.06472172 -0.16169575 -0.016298799 0.053805508 -0.10216375 0.04620391 -0.14071134 -0.025232121
-0.14035729 -0.0982262 -0.08190843 0.030600416 -0.18133178 -0.031743594 -0.19375007 -0.11487826
-0.2521813 -0.15252249 -0.26305372 0.014969321 -0.3564468 -0.002293347 -0.264352 0.035126287
-0.19568756 0.08416194 -0.45932046 -0.02885787 -0.3735923 0.001802336 -0.28618947 0.056095608
-0.22145317 0.046644308 -0.018046856 0.2793873 0.16726898 0.04092247 0.0759853 0.1528168
0.10085602 0.1296835 0.103938825 0.10236853 -0.15860017 0.54389495 0.049311496 0.28942785
0.061913036 0.09900337 -0.051426034 0.04922325 -0.11588942 0.8085349 0.05237101 0.43079594
0.05694002 0.20217995 -0.01589065 0.15145493 -0.15901396 1.0666044 0.038695287 0.38272607
0.013445209 0.17512396 0.0029319304 -0.2055401 -0.002838658 0.7351611 0.077598825 0.37791237
0.10310462 0.17408745 0.03802328 0.05176919 -0.25729075 -0.12035482 0.13096935 0.38359332
0.115059875 0.08829246 0.14210977 0.023307445 0.105034284 -0.029312545 -0.02836752 0.03018594
0.0069425823 0.014921004 -0.0025377702 -0.034344327 -0.05856438 -0.07111917 -0.14541261 0.03903846
0.080531694 0.027377447 0.064525366 -0.033764377 -0.08169769 -0.045202762 -0.17059623 0.104741395
0.03624714 0.029603265 0.012274451 2.6039197e-05 -0.0053866482 0.029113676 -0.169531 0.20610832
0.03650614 0.13167857 0.06472513 0.1023716 0.10444911 -1.6796538 0.029625744 0.23211807
0.20270005 -1.5670528 0.25614312 -0.5402052 0.42806694 -0.38962695 0.60957134 -0.30868614
-0.22208184 -0.122899085 -0.07288491 -0.10026892 -0.020585481 -0.16847718 0.0100456495 -0.19901666
-0.24565998 0.012973286 -0.07598987 -0.000880131 0.10126243 -0.06014363 0.011608273 -0.09937959
-0.31927744 0.17159389 0.023387983 0.1299223 0.12349733 0.33230826 -0.07890896 0.28523767
-0.20225112 0.35650855 -0.05229872 0.25837293 0.08689877 0.43612933 0.04852036 0.47721875
0.3060937 -0.052034378 0.8685409 0.3800881 0.5866408 0.09952706 0.5118734 0.26343104
0.5076622 0.4977955 0.3105678 -0.09354975 0.018505676 0.01941364 0.06733665 0.22284801
0.042413127 0.35492006 -0.13048676 -0.13111418 -0.03606909 0.037403174 0.17162856 0.2750535
0.19305922 0.3919584 -0.52572775 -0.22007655 -0.1960224 -0.054276 -0.058714658 0.27312708
0.049166936 0.28129992 -1.044426 -0.37148517 -0.5413878 -0.3002871 -0.05651438 0.06762369
0.12169481 0.20493664 -0.29573232 0.2958179 -0.0768629 0.049852066 -0.22806428 -0.19387001
-0.28574458 -0.08468627 -0.28424338 -0.026684245 -0.003211852 -0.57020134 -0.015075038 -0.39036483
-0.0029133437 0.04563445 -0.070251755 0.28421918 0.14176698 -0.68017685 -0.030572494 -0.30488726
0.06729555 0.20251966 0.07100572 0.3657135 -0.017154444 -0.5806258 -0.07042797 -0.40893874
0.080933355 -0.07188076 0.12042889 0.012122808 -0.032529764 -0.57817197 -0.0654129 -0.4904342
0.23858531 -0.22763515 0.3473587 -0.014263149 -0.124246076 -0.19946873 0.4085305 -1.0839723

sequential/dense_1/MatMul f4 [10, 20]
00000000: 4cea 53bf a37b de3e 3acb 6ebe 267d 043e
00000010: 1029 883e d99c 82bd cda5 6c3e 360a d33d
00000020: 61b2 05be a7e0 0a3f 2cab fd3e fef5 143e
00000030: ac06 ae3d 125a dcbd 666e f3be 2fb4 31bf
00000040: dafe 683f 78af 1fbf e70c c13d 66d0 6e3e
00000050: 0f82 253d 7da1 573c 21b5 a0bf 11af 03c0
00000060: 046d 523c 20e0 fd3d 03ca 84bf 9732 90bf
00000070: 8b6a 023e e086 e2be 30cd 50be 5a65 ff3c
00000080: e553 b63c 5d6d 54bf 8d3f 9ebd 026f 2b3c
00000090: 7d9b d03d dc0d 313e 093a b2bf f49e 193d
000000a0: b92b 383d 8153 1ec0 af5c d63e 87f6 2ebe
000000b0: 48eb e7bf 13d2 f43d 85b2 81be c53d 8fbe
000000c0: 81de debe ad63 aa3e 392a 1a3e 98dd f1be
000000d0: a2f9 b3bf f7ce 813e 9bef 413f f579 72be
000000e0: e0d0 c9bf 8aae bbbf 7346 64be 6ca6 83be
000000f0: 1520 8fbc 8026 4b3b bbc7 bbbf e975 c3bd
00000100: 4767 32bf 2e0c 27be e000 51bb 3e2d b4bf
00000110: 520d eebd 8907 a03d a162 1dbe ddd0 b6bf
00000120: 23c7 a9bc 459e bbbe fcd9 acbf 78a7 8abb
00000130: be63 c43d 6b28 c2bc c9a8 a4bc 441a b8bf
00000140: 246d 6a3e 64c8 09be 552e 1d3e b822 e53e
00000150: bf05 843d 5c02 27bd 8c83 f53e 313c 4cbf
00000160: a86f 733e 1ca5 4e3f e321 df3e b6e3 ad3e
00000170: 5700 3f3f 0732 a93d ced4 a5bd 1bd8 cc3e
00000180: 3c12 b73d f0fd 053f c21a bc3e 17ca a73e
00000190: 7431 693e ed78 1a3d 3d68 86bf 7db9 fa3d
000001a0: 302b 5c3e 4460 1abd e7a0 643e 49ba 5fbe
000001b0: bfa3 c6bd a880 8fbc 6bfd 79bd 8bd3 0f3e
000001c0: 425f 13c0 d59f 35bf b022 e03f 0124 023e
000001d0: e420 1bbd e67d 633e 9f7f f43d 136f 403e
000001e0: 67c7 b5be 5f62 c3bf 7a9d 30be 3167 023e
000001f0: c5fd 763e a903 8c3f 1db1 383e 92c3 ecbc
00000200: 1453 56be d0ec 15bf 81ec 89bf c7ff 693e
00000210: 972b 393d 3b4a a83e cfbd b5be 8ca0 b5be
00000220: 0e91 1c3f 145c e13b 84d8 5a3e e8ea df3d
00000230: 2e63 61bf 5c06 85bf 2a5f ef3e 01a1 2fbf
00000240: cc4b 49bf a481 0b3e c1e7 55bf 6382 973f
00000250: 879a d43e 6655 943e 4688 113f bb24 4abf
00000260: 2a0e 363d 18ab 803d be1c 713e 5b6a 13bf
00000270: 7d98 e43e 9309 383e 6189 81bf edc2 3dbf
00000280: 9697 66bf 6048 153e 8cee 9c3e 3f5f c2bd
00000290: 540e c7bd 39e3 113e c2b6 be3c 123b 823d
000002a0: 0376 b8be 41ee 04bf d1eb 17bf 2fa0 053d
000002b0: 2c55 b33c 5ba9 aa3e 36ac 54be 6d8d e3bf
000002c0: a975 043e 9990 f0be c03b 573c 7695 e33d
000002d0: 6905 2ebe 2be0 143f 9edc f53e 2df8 0e3e
000002e0: a237 183e b406 b73e 86d7 463f 3d75 003f
000002f0: b869 533f 6700 983f adea 6a3f 6a20 e03e
00000300: af71 e83e 9aaf a63e 31aa 803e 25a1 483e
00000310: 992d c23e 112f 64bf c13f be3e f19b 443f
-0.82779384 0.43453702 -0.23319712 0.12938365 0.26593828 -0.063775726 0.23110123 0.10304682
-0.13056327 0.5424904 0.49544656 0.14546964 0.08497366 -0.10759367 -0.47545165 -0.69415563
0.9101387 -0.6237712 0.09426289 0.23321685 0.040407237 0.01316106 -1.2555276 -2.0575602
0.012843374 0.12396264 -1.0374149 -1.1265439 0.12735955 -0.44243526 -0.20390773 0.031176258
0.0222568 -0.82979375 -0.07726965 0.010463478 0.10185907 0.17290443 -1.3923961 0.037505105
0.044963572 -2.4738467 0.41867587 -0.1708623 -1.8118677 0.11954131 -0.25331512 -0.27976814
-0.43529132 0.33279172 0.15055169 -0.47239375 -1.4060557 0.25353214 0.75756234 -0.23679335
-1.5766869 -1.466264 -0.22292499 -0.25712907 -0.017471353 0.003099829 -1.4670328 -0.09543974
-0.6968884 -0.1631324 -0.003189139 -1.4076307 -0.116236344 0.07813937 -0.15369655 -1.428249
-0.020724839 -0.36644188 -1.3504024 -0.0042313896 0.09589337 -0.023700913 -0.020100014 -1.4383016
0.22893196 -0.13455349 0.15349706 0.4475305 0.064464085 -0.040773734 0.47951925 -0.79779345
0.23773062 0.80720687 0.4358054 0.33962792 0.74609894 0.08261495 -0.0809723 0.40008625
0.08939025 0.523406 0.36739165 0.3277137 0.22772771 0.03771298 -1.0500561 0.1224241
0.2150085 -0.037689462 0.22327004 -0.21848406 -0.09699201 -0.017517403 -0.061032694 0.14045541
-2.302689 -0.7094701 1.7510586 0.12709047 -0.037873164 0.22215995 0.11938404 0.18792371
-0.35503694 -1.5264395 -0.17247573 0.12734677 0.24120243 1.0938617 0.18036313 -0.028901849
-0.2093013 -0.5856447 -1.07753 0.22851478 0.045207586 0.32869133 -0.35496375 -0.3547405
0.61158836 0.0068774316 0.21371657 0.10933477 -0.8804196 -1.0392566 0.46752292 -0.6860505
-0.7863128 0.13623673 -0.83556753 1.1836666 0.41524145 0.28971404 0.5684856 -0.78962296
0.0444471 0.062826335 0.2354612 -0.5758416 0.4464759 0.17972402 -1.012005 -0.7412556
-0.9007505 0.1457839 0.30650747 -0.09490823 -0.0971953 0.14246835 0.023280505 0.06358923
-0.36027536 -0.51926047 -0.593442 0.032623466 0.021891199 0.33332333 -0.20768818 -1.7777535
0.12935509 -0.4698532 0.013136804 0.11112492 -0.16994251 0.58154553 0.4801988 0.13961859
0.14864972 0.35747302 0.7767261 0.5017889 0.8258319 1.1875123 0.91764337 0.4377473
0.45399234 0.32555848 0.25129846 0.19592722 0.37925413 -0.8913432 0.37158015 0.7680045

sequential/dense_2/MatMul f4 [7, 10]
00000000: faf2 81bf cf3f 62be fea5 4f3e 5f14 4dbf
00000010: 270c 8dbd 6a87 b43c 64bf 573e b474 953e
00000020: b650 da3e 4814 743e 0914 f23e 6b73 3bbf
00000030: bfeb 073f 47c0 3fbf 48d3 83bf 81ff 5a3e
00000040: 378c dd3e 728f 543f d62f 563f 2cc8 7ebf
00000050: c160 61bf e361 40bf db9c 883e 38ee b33f
00000060: 1cd0 843e 54fb a3bf 7612 653f 3cc7 8dbf
00000070: eccb 523e 67e6 a9bf 280f 40be ef92 c7be
00000080: be51 d8bf 4c05 cf3f a933 593f e4a1 3a3f
00000090: 84d0 5bbf fafe 12bf 8ea4 37be 70c1 e1be
000000a0: 4bfa 14bd f1c2 cc3f 8718 c1bf 52e8 11bf
000000b0: 329d 1d3f 6508 1e3f 0822 36bf b11d 21bf
000000c0: 71e5 52be 1c25 43be cd88 293f eaef bf3e
000000d0: 0654 17bf e3a0 943f bb44 42bf 8b01 16bf
000000e0: 6432 603f 8925 623f 3077 39bf b8da c93e
000000f0: 9227 323f a256 02bf cae9 9cbf 72b7 48bf
00000100: 23d4 61be 0909 94be 2b3d 4b3f 821f 353f
00000110: 016c 033f f18a 903d
-1.0152276 -0.22094654 0.20278165 -0.8010921 -0.068870835 0.022037227 0.21069103 0.291906
0.42639703 0.23835862 0.4728091 -0.7322299 0.53094095 -0.74902767 -1.0298853 0.2138653
0.43271038 0.8303138 0.8366674 -0.9952419 -0.8803826 -0.75149363 0.2668217 1.4057074
0.25940025 -1.2811074 0.89481294 -1.1076427 0.20585603 -1.3273438 -0.18755782 -0.3897929
-1.6899946 1.6173491 0.8484445 0.72903275 -0.85865045 -0.57420313 -0.17933866 -0.44092894
-0.03637151 1.5996991 -1.508561 -0.5699512 0.61567986 0.6173156 -0.7114568 -0.6293593
-0.20595337 -0.19057125 0.66224366 0.37487727 -0.59112585 1.1611599 -0.75886124 -0.58596104
0.8757689 0.88338524 -0.7244749 0.39424682 0.6959163 -0.5091344 -1.2258847 -0.78404915
-0.2205358 -0.28913143 0.7939021 0.707512 0.51336676 0.07057751
